Modules/SVM/kernelAlphas_0.572737686139748_1.npy (npy, 7104 bytes, 1 tensors)

array f8 [872]
0	0x3cb15a49bb33a60b	2.408169157099781e-16
1	0x3cccf312b7a89a94	8.035101571632135e-16
2	0x3fdccaab8fb871a0	0.44987000498965735
3	0xbcbd64619eb9c2a6	-4.078975291327785e-16
4	0x3fd7fc5b6f7f8776	0.37477765930645235
5	0x3fd710186057ab4e	0.36035737427180414
6	0x3fd426c5fc38b7a6	0.3148665392972084
7	0x3fdd18cd681b837e	0.4546388165163576
8	0x3f999e7b4a3626c7	0.02501862183047512
9	0xbcde6c5032b79004	-1.688821234307815e-15
10	0x3fdf33f8d1383b71	0.4875471156273568
11	0x3fe1b058cb4d6244	0.5527767153499288
12	0x3fc4b8a6c7cc50de	0.16188511615531004
13	0x3fd653bec9cb8fa5	0.3488614054351678
14	0x3fe253ddfbe5059f	0.5727376861397494
15	0xbc86b01ac53499c0	-3.9357247466061247e-17
16	0x3fd3e0d59ed46ef9	0.31059780607914395
17	0x3fd1643f6c1b7fd9	0.2717436366783637
18	0x3fd35803ea1c5cf4	0.3022470270384041
19	0x3fe000a395570485	0.5000780026240511
20	0xbca9ef4c56a6dae2	-1.7995853822961566e-16
21	0x3fe253ddfbe50593	0.5727376861397481
22	0x3fe253ddfbe50599	0.5727376861397487
23	0xbcba4c3b48e37d6c	-3.649550052866565e-16
24	0x3fd3cf69bd078609	0.30953448734189287
25	0xbcc39225094ce319	-5.432009739108842e-16
26	0x3fd9da4488f72c43	0.4039470040849588
27	0x3fe253ddfbe50591	0.5727376861397478
28	0x3fd3ff0cf089d08d	0.3124420498854839
29	0x3fe253ddfbe50596	0.5727376861397484
30	0x3fda29471c04fde6	0.40876939522055833
31	0x3ca6c296e447242c	1.5793002270379953e-16
32	0x3fdaebf07e24ca18	0.42065059965821794
33	0x3fe253ddfbe50595	0.5727376861397483
34	0x3fdfb9d90a1855b0	0.49571825013966997
35	0x3fc105c10a783f8c	0.13298810015885143
36	0x3fc648e523f8e329	0.17409958130317563
37	0x3fd99f9f997ba669	0.4003676413400173
38	0x3cce4dfaa60051cb	8.411217789414407e-16
39	0xbcdbc627ad7d4910	-1.54176909758759e-15
40	0x3fd9c0f7355fa25f	0.40240268909704996
41	0xbcb1916f118822f9	-2.438063781496035e-16
42	0x3fb0157df17d3a33	0.06282794137698815
43	0xbcbbf6c6a81007df	-3.8807802468159217e-16
44	0x3fe2447075c3cf3a	0.5708544063659027
45	0x3fcbac4dc6a3805a	0.21619579505113756
46	0x3fe228581f19c8f3	0.5674248320995318
47	0xbcbca6a1716df792	-3.9761112355329345e-16
48	0x3fd164af505069aa	0.2717703136746886
49	0x3fc9b3786f8e20f6	0.20078950354605468
50	0x3fe253ddfbe50597	0.5727376861397485
51	0x3fc5e40d513c9ed1	0.17102209536209625
52	0xbccd7b1baa96903b	-8.182590967339996e-16
53	0x3fe253ddfbe50599	0.5727376861397487
54	0x3fe03f333ced8ede	0.5077148618697398
55	0x3fd3e9d99868d69f	0.3111480701803461
56	0xbcd8fd07d66e0124	-1.3871348981969638e-15
57	0x3fe0a76e5bb353dc	0.5204383650803908
58	0x3fa33740d93f0b36	0.0375309243386454
59	0x3fe253ddfbe5058c	0.5727376861397473
60	0xbccbff899725bc66	-7.771059688296557e-16
61	0x3fcc6035342761ee	0.22168602987836955
62	0xbcbabd67d6401c87	-3.71090181855362e-16
63	0xbcc977d391f691b2	-7.068809996950289e-16
64	0x3fd562af42b9de82	0.3341482307073208
65	0x3fb3f37def27678c	0.07793414200514642
66	0xbcd3bf1f111fd43c	-1.0961547110638722e-15
67	0x3fe253ddfbe5059d	0.5727376861397492
68	0xbcbb46e8427fd049	-3.7854416133253884e-16
69	0x3fd22229cd0d470d	0.2833351614436744
70	0x3fe00fe127a053ab	0.5019384168577877
71	0xbc9648d78c4b4cf0	-7.731502591559392e-17
72	0x3f77951a00b28ee2	0.005757428715842146
73	0x3fe253ddfbe50591	0.5727376861397478
74	0x3fe253ddfbe50592	0.572737686139748
75	0x3fd4ecf22ef89003	0.3269620379162463
76	0x3fe253ddfbe50588	0.5727376861397468
77	0x3fe1dca15b9b7446	0.5581824101642574
78	0x3fdd3d33fb420911	0.45686053788098585
79	0x3fe253ddfbe50597	0.5727376861397485
80	0x3fe253ddfbe50594	0.5727376861397482
81	0x3fbab1ea64b483ce	0.10427727659818162
82	0x3fd0af75d01ee926	0.260709241145053
83	0xbcaed43e258e00c0	-2.1391966866899068e-16
84	0xbcbb1ca6f83b24be	-3.7625351105167604e-16
85	0x3fe253ddfbe505a8	0.5727376861397504
86	0x3fe253ddfbe50596	0.5727376861397484
87	0x3fce343965d6d694	0.23596875641458281
88	0x3fdf88a455750a9a	0.4927149614851857
89	0x3fe253ddfbe50596	0.5727376861397484
90	0x3fd4f677be2134d5	0.32754319732050635
91	0xbc72a0629ae0fc28	-1.615591739628325e-17
92	0x3fe253ddfbe50598	0.5727376861397486
93	0xbcd2ec4bd83b8066	-1.0504393076280896e-15
94	0x3fd1d3f3ca638247	0.278561542172643
95	0xbcc8e484273f2cbe	-6.909095934106274e-16
96	0x3fe097c84bc482de	0.518528125747334
97	0xbcaba9ce7d740d50	-1.9195275256891863e-16
98	0xbcc9a5b728102861	-7.118562960302733e-16
99	0xbcc8f41962bd3f09	-6.925990990459561e-16
100	0x3fbf9c145fa433bd	0.1234753354548976
101	0x3fcc8a8c1e3ce041	0.2229781291623585
102	0x3fe1abe2875cad23	0.552232040766658
103	0xbcb1b7b849dd9f03	-2.4588186722694307e-16
104	0x3fd50f034ddff816	0.32904131512612034
105	0x3fafe6873bfc2838	0.0623056660388816
106	0x3fdaad33b109e427	0.41682140625886394
107	0xbcc18ab1c5639110	-4.868820644144192e-16
108	0xbc9852f845efca97	-8.439117754693431e-17
109	0x3fe253ddfbe50590	0.5727376861397477
110	0xbcafa9a5b702678d	-2.1970401094532318e-16
111	0x3fd2d3c4ca083022	0.2941753361672018
112	0x3fe253ddfbe50590	0.5727376861397477
113	0x3fdfff3061a8d828	0.4999504998880888
114	0x3cb0950d5fec40d6	2.3012474331266056e-16
115	0x3fe253ddfbe505a3	0.5727376861397498
116	0x3ca6bf62adede1e8	1.5784317934862398e-16
117	0x3fe253ddfbe50599	0.5727376861397487
118	0x3fd75efb5aeab08b	0.3651722324236821
119	0x3fe253ddfbe50597	0.5727376861397485
120	0x3fd3f3346cc98e21	0.31171904205095485
121	0x3fdce0ac50aab3bd	0.45121295812242207
122	0x3cb1962fd8a5c580	2.4406404087026615e-16
123	0x3fca0ee11672bdac	0.20357907863715974
124	0xbcc3f85becb5bffa	-5.542830821774703e-16
125	0x3fe06c8e06c2b069	0.5132513172188854
126	0xbcc41d1392d7f052	-5.582639883579955e-16
127	0x3fd8a3eb933e52a2	0.3850048959659863
128	0x3ca0cdfe893548f0	1.1660578864053757e-16
129	0xbcb69ec866475304	-3.139189651847999e-16
130	0x3fcc921171b1fbca	0.22320764590764802
131	0x3fe253ddfbe50591	0.5727376861397478
132	0xbcc79c097ba98c98	-6.552958092806182e-16
133	0x3fe041ffb9ce1da0	0.5080565098768837
134	0x3fe253ddfbe5059c	0.5727376861397491
135	0x3fe13b9bcb3ea5ae	0.538526436769805
136	0x3fdcb4c4c0fb193b	0.44853323789392946
137	0xbcf6abe742944109	-5.03408370515725e-15
138	0x3fdaedb0a845a278	0.42075745041669377
139	0xbca39fc5253f2b12	-1.361695614010885e-16
140	0xbcc716188c0775c9	-6.407738799930814e-16
141	0x3fc596d3e2977c4b	0.1686653953938467
142	0xbc85bf65bcf6aaf0	-3.7726152325029987e-17
143	0x3fdc176a439b1f41	0.4389291439260781
144	0x3fdbe09080391ea9	0.4355813266924807
145	0x3fd0945c13d31e40	0.25905515609744967
146	0x3fd023aea989e263	0.252177873196649
147	0x3fcfcecdb2372641	0.24849864198613328
148	0x3fbf70a68a89daf7	0.12281266100204023
149	0x3fbe0f45d5ec0d6e	0.11742054436404256
150	0x3fd12edec845c902	0.2684857326304525
151	0x3fa895947aaddb49	0.04801620481059971
152	0x3fe09442ee2ae668	0.5180983211241257
153	0x3fc4fa26864f5ce5	0.16388398702722565
154	0xbc617a87a1a1fbc0	-7.580148345201637e-18
155	0xbcbaff6d2385b3ce	-3.746691717335158e-16
156	0x3fe22079b3c0d097	0.5664642821125366
157	0x3cc77c40df6f0f75	6.518498207928615e-16
158	0x3fb1d09a71d534a6	0.06958928374406756
159	0x3fbada4dc5f1aca7	0.10489355166071111
160	0xbcb80f903cd83bd3	-3.3391060253253773e-16
161	0x3fc35ff5221a5073	0.15136589207816406
162	0x3fe253ddfbe50596	0.5727376861397484
163	0x3fc81a422202898f	0.1883013406814595
164	0xbcd36554f66aaccc	-1.07668472337014e-15
165	0xbcb2c856178aa65c	-2.606604329470371e-16
166	0x3fb7671e26cb3515	0.09141720244516123
167	0x3f93f8b3515c50a5	0.019503404465539238
168	0xbcc236a344c14794	-5.055241997435469e-16
169	0x3fd18f3b31dcfc09	0.2743671404786601
170	0x3fdd3d73937bc74f	0.4568757000225689
171	0xbc98c8b555b141aa	-8.598683205909099e-17
172	0xbccce2c90d0b7567	-8.017442347277264e-16
173	0xbcbae8600b9d817c	-3.7341956660265725e-16
174	0x3fbc0c7160252620	0.10956486317913816
175	0x3fc2eab11ba3becc	0.1477872261962062
176	0x3fe253ddfbe50595	0.5727376861397483
177	0x3fdcb459916dd071	0.4485076828198152
178	0x3fbb51ba34f5f936	0.10671581070889577
179	0x3fe253ddfbe50594	0.5727376861397482
180	0x3fdaa0eab8608e34	0.4160715866621303
181	0x3fe253ddfbe50595	0.5727376861397483
182	0x3fd164bc20363f15	0.2717733683175408
183	0x3fd617e46bcd2fa4	0.3452082684277633
184	0x3fc9e3a0077a47aa	0.20225906720275805
185	0x3fc5a1f8fe20911a	0.16900551231913924
186	0x3fd22eb2d499fabb	0.28410025369513975
187	0xbcd026925cff778e	-8.965423307256133e-16
188	0x3fc0590f7b31bfd9	0.12771790995930024
189	0x3fd6a5ae24f2ca51	0.3538623200248923
190	0xbcddd7e4d8fcf4e2	-1.656637920588764e-15
191	0x3fe253ddfbe50590	0.5727376861397477
192	0x3fd6632cc576bc7f	0.34980315478873786
193	0x3fd0a2104ec81ddb	0.2598915833809465
194	0xbcb1e5913aabf515	-2.4836726108424246e-16
195	0xbca322845e73c57f	-1.327745711290074e-16
196	0x3fd75fed1c29542c	0.36522987127438244
197	0x3fd533faec2b62af	0.33129761756348847
198	0x3fc120be9fb0458e	0.13381178662579568
199	0xbcba4c3bddc54748	-3.649551284389492e-16
200	0xbcbce1b1d5a99eee	-4.008129910047276e-16
201	0xbcb484386e80e960	-2.847234403623583e-16
202	0x3f82c0743e2300b9	0.009156139513266092
203	0xbca821b42b084e72	-1.6744699652519017e-16
204	0xbca8dc4d4d9e5f5a	-1.7250475043687918e-16
205	0x3fd627f0a5e60a12	0.3461877460578374
206	0xbcd0f7c8d99c002e	-9.419081336193935e-16
207	0x3cb6e597a1f60d36	3.1775755611175016e-16
208	0x3c6dee3d09598d50	1.2980336789550813e-17
209	0x3fd840b6ff634542	0.3789498800297971
210	0x3fdf62aa2d020393	0.4903970183877899
211	0x3fe253ddfbe5059a	0.5727376861397488
212	0xbc8e753ffef05bee	-5.283622107411386e-17
213	0xbcb3163ccb3ecd43	-2.6488346435300547e-16
214	0x3fdf311cdbf5f6f2	0.4873726032309228
215	0x3fe0ee8f1143e84f	0.5291209542476824
216	0x3fe253ddfbe5059c	0.5727376861397491
217	0xbccc91ea1545d623	-7.929761867863715e-16
218	0xbcb47748a3720e20	-2.8402214087460046e-16
219	0x3fd14bc0a16c40f6	0.2702485634226969
220	0x3f9ac9f64db85a34	0.026161049359951075
221	0x3fc63f19a51a4415	0.17380066453600365
222	0x3fd3bd6ac66ca8d8	0.30843610169780566
223	0xbccef3f164f99159	-8.591156157793257e-16
224	0x3fdbde7d342bc96b	0.435454655597957
225	0x3fdbd5010c5976ce	0.4348757382011684
226	0x3fd1108c9bf5314e	0.26663508634807875
227	0x3fe253ddfbe5059f	0.5727376861397494
228	0xbc8e6fb4a97108dc	-5.279865161663909e-17
229	0x3fd2cc0cad35adfa	0.29370419421203986
230	0x3fe253ddfbe50594	0.5727376861397482
231	0x3fc4f482990ac636	0.16371185753591683
232	0x3fc44d968450a633	0.1586177965230476
233	0xbccd7a18fa2699b8	-8.181495375926846e-16
234	0x3fc5fd7d00168a6d	0.1717983484678202
235	0xbccdebe1a42693a0	-8.304860066777507e-16
236	0x3cb103ae6205424d	2.361219500726169e-16
237	0xbcc8622136398b51	-6.767730618164584e-16
238	0x3fccfd44358a92ea	0.2264790784294271
239	0x3fe253ddfbe50594	0.5727376861397482
240	0x3fb0daf625824f8d	0.0658410874914905
241	0x3fc80bc160c6dba3	0.1878587458174624
242	0xbcb2e7ab9140e332	-2.623590464422145e-16
243	0xbcbda34010a6e286	-4.1130566043365603e-16
244	0x3fd6e86ab4537b01	0.35793559656114843
245	0x3fe253ddfbe505a2	0.5727376861397497
246	0xbcc46148e25675d6	-5.656591410161623e-16
247	0xbcb17a0338b9582d	-2.4253670818071226e-16
248	0x3fcc4b6c45b0688c	0.2210517254141603
249	0x3fe1ffa93080ed81	0.5624586055122763
250	0xbcb2432723dd7001	-2.5344054605654703e-16
251	0xbcd2696e668f1f52	-1.0220624807485373e-15
252	0xbcc601e6b0916ece	-6.108287846574322e-16
253	0x3fb94bee23bebdf2	0.09881485340769539
254	0x3fe253ddfbe50592	0.572737686139748
255	0xbc7198c9dec26d58	-1.526281730697869e-17
