Modules/SVM/kernelAlphas_0.8018327605956472_1.npy (npy, 7104 bytes, 1 tensors)

array f8 [872]
000000 d8 38 76 4f f2 ff 80 3c 84 b4 38 4b 15 ea b6 bc
       2.948993673084935e-17 -3.1800100633474166e-16
000010 f5 18 ab 27 5d 42 dc 3f df 2e db b4 59 e0 d7 3c
       0.4415505301843859 1.3254047199815023e-15
000020 78 67 37 43 8f 56 d8 3f 0b 8a 2c 26 3d 62 d5 3f
       0.38028317989448324 0.3341210243981158
000030 71 8d 47 e4 fc 73 d4 3f b1 15 8d 1f 96 7f dd 3f
       0.3195793370525371 0.4609122570148783
000040 c6 20 82 cb 9b 23 96 3f d4 3b 08 7a 6a ed bc 3c
       0.021620210930024773 4.014484016784995e-16
000050 ab 69 65 47 da cc db 3f 7b 37 19 b0 31 84 e2 3f
       0.43437821361808443 0.578636974279774
000060 0d 06 c8 59 2a d6 c4 3f 02 db 53 0e c9 dc d6 3f
       0.16278581031660658 0.35722566985298
000070 4c ef b4 51 5e 5d e4 3f e2 3b ba 1d 56 86 b0 bc
       0.6363975139461018 -2.2932699527904216e-16
000080 b5 4b cc 6e 08 5a d4 3f 75 19 0f aa 17 a3 d1 3f
       0.31799517459983956 0.27557937247583847
000090 33 75 8c 8c b5 6c d2 3f 7e e2 3b ac 75 e5 de 3f
       0.28788508153396036 0.4827551061603471
0000a0 d0 da 63 21 fe 5e ba bc ac d4 73 2d 9d a8 e9 3f
       -3.6597204742561666e-16 0.8018327605956492
0000b0 9e d4 73 2d 9d a8 e9 3f 9c f4 11 f0 74 de cb bc
       0.8018327605956477 -7.735193549248284e-16
0000c0 8e 15 d1 ab ac 17 d4 3f 3e 80 93 a5 98 09 c4 bc
       0.3139449766061596 -5.561519426946112e-16
0000d0 2a cd 9c 0c cf e8 d9 3f a2 d4 73 2d 9d a8 e9 3f
       0.40483452064218517 0.8018327605956481
0000e0 fb 28 0d 01 e6 78 d4 3f 31 1b c8 5e b1 98 e2 3f
       0.319879056002392 0.5811392642216103
0000f0 22 7c 12 18 2d 8b da 3f 86 3a e6 6d 73 73 c8 3c
       0.414744637973799 6.786510259663354e-16
000100 32 f8 de 06 8b 47 db 3f 9e d4 73 2d 9d a8 e9 3f
       0.4262416426753389 0.8018327605956477
000110 66 8f f5 98 ee 10 e0 3f 61 5d b8 fd b9 cf b4 3f
       0.5020668971524003 0.08129465526905257
000120 56 ce d4 23 dc be c5 3f 69 e2 bb d5 b2 bf d4 3f
       0.1698870825726881 0.324200352406058
000130 29 dd eb b9 15 cc d0 bc 80 14 bb 73 1b 28 ba bc
       -9.32432271191549e-16 -3.6299670055079963e-16
000140 b3 9b e2 9e df 81 d7 3f e7 e6 3f 17 c7 21 ac 3c
       0.36730185047275227 1.9520457566208212e-16
000150 ed 32 0d 8c 9a 9a ab 3f 00 b6 96 94 57 c9 ad bc
       0.05391390761960744 -2.0668531206820265e-16
000160 93 ef 31 f5 7c 37 e2 3f b0 13 b2 1d 3c ed 96 3c
       0.5692734517065098 7.954296439342884e-17
000170 69 eb 5f 79 df a6 e2 3f 48 e2 5e 41 48 76 c6 bc
       0.5828702326392491 -6.234468505119187e-16
000180 d6 7c 03 64 0d a3 d1 3f 23 e4 69 03 59 25 ca 3f
       0.27557692305522374 0.20426476160699378
000190 03 bb a2 8a c5 b5 e4 3f 46 54 ce ed dd 1f b9 3f
       0.6471889217117169 0.09814250045595072
0001a0 cb c6 e9 6f fa db b6 bc 44 61 e9 d1 c1 34 e7 3f
       -3.1723637769225843e-16 0.725190076812432
0001b0 be 9d ab ce ac 71 e0 3f 18 54 3a 71 af f2 d3 3f
       0.5138763462572837 0.3116873365154915
0001c0 65 4e 60 8e b0 ab c8 bc 72 24 77 32 e5 c7 e0 3f
       -6.847484463656128e-16 0.5244012818958608
0001d0 71 b5 62 9e c8 52 c9 bc 4f 5e ab bf 23 22 e3 3f
       -7.028648135267934e-16 0.5979174369376298
0001e0 30 ec 35 c4 f4 14 c4 bc ea 1f a4 2c 91 cf cc 3f
       -5.573835792803811e-16 0.22508444480649753
0001f0 54 7d 07 63 43 37 b1 bc 14 12 91 5b fb b1 b1 bc
       -2.3891821842412814e-16 -2.455708090189669e-16
000200 05 aa 62 99 a1 4a d6 3f fe 95 5c 51 6f 6b bb 3f
       0.3483051298050273 0.1071080754887461
000210 a8 20 61 90 40 da c0 3c cc 97 47 fa bc ab e6 3f
       4.677521611202473e-16 0.7084641350054368
000220 2c f7 08 37 0a fb c0 bc 23 b3 ca 9e 09 85 c2 3f
       -4.713070105919907e-16 0.14468498471742305
000230 a4 4d c1 91 77 35 e0 3f 5a 24 f2 4b ab a3 c5 bc
       0.5065267416743393 -6.00612130298609e-16
000240 d4 b8 b5 98 8b c9 a8 bc 05 94 a8 f7 58 63 e5 3f
       -1.7199634996728594e-16 0.6683773839073416
000250 9c d4 73 2d 9d a8 e9 3f 32 16 3d 49 aa 5c d5 3f
       0.8018327605956475 0.33378083374222733
000260 97 d4 73 2d 9d a8 e9 3f 20 ae 04 eb b6 9d e1 3f
       0.8018327605956469 0.5505022611809558
000270 61 d1 09 2f 15 ab dd 3f 10 d3 f5 8e 3f 6d e1 3f
       0.4635670623167894 0.5445859710876864
000280 8d ba cc 35 59 e8 e5 3f 60 1a 43 6e 7d 11 b9 3f
       0.6846128512168704 0.09792312566706007
000290 8a 37 b0 71 ff d0 d0 3f f4 fb 7c a4 70 c3 b6 3c
       0.26275621511819536 3.15906155937641e-16
0002a0 ec f2 36 16 dd 22 c9 bc 9e d4 73 2d 9d a8 e9 3f
       -6.976693116688911e-16 0.8018327605956477
0002b0 e1 a8 b4 39 3a ba e6 3f 28 e4 e1 6a 7b 8a d0 3f
       0.7102328421654215 0.25845227658970993
0002c0 ea 88 2b 1c de 99 df 3f 84 ba ed 0b b9 35 e3 3f
       0.4937663340662214 0.6003079636555673
0002d0 d3 33 e9 4c df 08 c3 3f 38 8b 46 3d fa 09 aa bc
       0.14870826011102042 -1.8068168211297725e-16
0002e0 a1 d4 73 2d 9d a8 e9 3f 87 65 55 6f cb 60 be bc
       0.801832760595648 -4.2158088367741654e-16
0002f0 e7 6d e2 31 e0 7b d1 3f 36 fa ac e8 ed d2 c7 bc
       0.2731857764390199 -6.612472431155546e-16
000300 88 6c db b7 08 55 da 3f ee e9 95 9c 99 6a aa bc
       0.41144006686017365 -1.8330064152607733e-16
000310 f0 06 37 8d a7 0e b0 bc 54 2d 51 87 eb 5d b6 bc
       -2.2283902688158755e-16 -3.1040274699130677e-16
000320 fe 92 e2 c4 19 a9 bc 3f 83 59 e5 92 e2 f8 cc 3f
       0.11195527130855606 0.22634536907817102
000330 25 2f 29 56 5e e1 e1 3f d0 e4 a3 f7 30 b5 81 3c
       0.5587608034925081 3.071809895404842e-17
000340 64 42 08 85 e7 57 d5 3f 7d fc 9f 79 9e 36 ae 3f
       0.3334902571814722 0.059010460230632035
000350 89 90 ac d1 4c d7 d6 3f ce e8 86 5a fe 8f c8 bc
       0.35689087367996614 -6.817456287902797e-16
000360 96 f5 86 40 e7 70 79 3f bc 57 1c 81 fa 50 e3 3f
       0.0062111886294905685 0.6036350747769954
000370 fa 8e cb ba 97 9c c4 bc 5d f2 40 4e b5 1c d2 3f
       -5.720893262175237e-16 0.28300221101725304
000380 5e 11 9d 1e e7 e2 e4 3f d3 42 71 fc 89 05 df 3f
       0.6526980970307183 0.48471307423191695
000390 d8 f8 35 8b c8 df a1 3c 9e d4 73 2d 9d a8 e9 3f
       1.2402685687796004e-16 0.8018327605956477
0003a0 e9 08 fb 84 60 d9 95 bc c3 9d f8 ac 40 d0 e6 3f
       -7.580439408132087e-17 0.712921464762012
0003b0 97 1c cf 87 1a 17 d7 3f a0 d4 73 2d 9d a8 e9 3f
       0.3607851339588221 0.8018327605956479
0003c0 b4 34 fc 32 57 13 d1 3f dd 51 dd 76 1c 54 dc 3f
       0.2668054578687802 0.4426337395464353
0003d0 41 3b d0 10 72 7b b2 3c 34 79 97 46 b3 53 ca 3f
       2.5649217824816476e-16 0.2056793303190233
0003e0 64 c2 93 19 9f ea 99 bc 71 7e 06 00 fc 81 e0 3f
       -8.991588783251167e-17 0.5158672333236166
0003f0 da 5c b1 36 e0 54 c4 bc e1 3c c9 45 fb 0d d9 3f
       -5.643137687332347e-16 0.391478365087961
000400 c8 7c 01 bc 7d a7 b2 3c 34 de 2a 60 ce 83 8e 3c
       2.588798939752772e-16 5.293485752610626e-17
000410 0b d9 5d 0b 4c 4e cf 3f ff 47 c9 88 90 a8 e2 3f
       0.24457693629273822 0.5830767318350353
000420 f5 07 fe 3f 37 d1 b2 bc 01 d0 4d 44 90 7c e0 3f
       -2.611417928793558e-16 0.515205510526812
000430 6f 79 60 1a 1c 01 e9 3f a0 49 8e 8f 39 7e e1 3f
       0.7813854708836468 0.5466583064865524
000440 98 59 76 3e 25 96 db 3f 52 0f bb f4 bb 58 db bc
       0.4310391530974811 -1.5180422463868124e-15
000450 06 6d aa 69 06 27 db 3f ea fe a9 7a fb e1 a5 bc
       0.42425690001410066 -1.5184203559366319e-16
000460 ba 65 7a 39 5a 6f cc bc b2 32 0b 77 b8 f7 c8 bc
       -7.892289729243894e-16 -6.929917324079846e-16
000470 64 08 93 20 e0 cc b0 bc df 44 ad 3b a7 ec db 3f
       -2.331509278742978e-16 0.4363191683560909
000480 6e 73 61 25 72 49 dc 3f 8e c9 f4 28 ab 0e d0 3f
       0.44198278093772714 0.25089529990796045
000490 3f 7e 62 c4 ff 39 d0 3f 06 b0 2e a4 9a 52 ce 3f
       0.2535399835414615 0.23689587609021617
0004a0 9b f4 3e a3 19 96 bf 3f b5 40 82 ff d9 d6 bd bc
       0.12338409648414699 -4.1410297256152826e-16
0004b0 70 55 2c 58 82 6d c0 3f 8c 2e 44 18 a5 c8 9a 3c
       0.1283419542821025 9.29248662274368e-17
0004c0 44 5b 28 f1 fe ce e0 3f 7e 1e 6c 46 69 34 be 3f
       0.5252680502042968 0.11798723191543023
0004d0 13 ed 45 89 c0 0f be 3c 40 a8 17 8e c0 e9 a1 3c
       4.171875569949533e-16 1.2429706157992885e-16
0004e0 aa 89 c0 65 53 62 e2 3f cc 86 e3 ea 99 59 a8 3c
       0.5745026576371874 1.689621001803906e-16
0004f0 d8 59 10 ba 2f 72 ad 3f 38 2a d0 7c 73 ec ba 3f
       0.057511798346400134 0.10517045781322387
000500 4f ae 42 ae 90 0d c1 bc 2c 51 d1 60 20 aa c3 3f
       -4.733155229518933e-16 0.15362934806274475
000510 d0 bf 22 7c 92 00 e4 3f 8b 72 e0 c3 95 e5 c5 3f
       0.6250698494459304 0.1710688787869866
000520 67 72 81 ea 0a 8f b6 bc 54 1e 64 ce 02 8c 92 bc
       -3.130656888660863e-16 -6.43475474968097e-17
000530 13 53 11 38 de 3a b8 3f cd 76 b9 5b 05 99 95 3f
       0.09464825505103773 0.021091541026513384
000540 c9 39 00 2d 12 63 b7 bc da d0 49 61 27 8d d2 3f
       -3.245597692056553e-16 0.2898653459626651
000550 6b 4c ae 70 8e a1 dd 3f e4 67 b4 02 86 e4 a1 3c
       0.46298562053670506 1.241553376700987e-16
000560 9b 75 b7 89 5b 0a b6 bc 1d 70 f6 3c f3 38 aa 3c
       -3.0587281677424404e-16 1.8195487838240084e-16
000570 f1 4b 93 84 76 21 ca bc 42 d2 d6 ba 3d 2d c3 3f
       -7.252730274470059e-16 0.14981814978604474
000580 29 c8 a7 76 63 04 e3 3f dc c0 60 cc 7d fa dc 3f
       0.5942857091415635 0.4527887817266796
000590 34 0b da 0c 1f 19 b5 3f 77 03 73 4a a1 86 e3 3f
       0.08241457046282791 0.6101843313300453
0005a0 ab 4a 7e f4 38 f4 da 3f 98 3b ad c3 9c 90 e5 3f
       0.4211561572675843 0.6739028760729182
0005b0 1b ac 2c e2 e5 a2 d1 3f 1c 59 6b 15 7a 8e d5 3f
       0.27556750380853295 0.3368210992024545
0005c0 37 f6 2b 7e a5 73 ca 3f 4d 5c 02 6d 33 f5 c2 3f
       0.20665424977043909 0.14810793707576622
0005d0 d7 db 85 42 9b eb d1 3f 60 32 be 44 18 5e af bc
       0.28000527855277596 -2.1765615565672707e-16
0005e0 0f 8a db 66 ec 91 c0 3f 89 44 3f 08 db 70 d8 3f
       0.12945323011724993 0.38188815884957045
0005f0 80 8a 98 45 60 a5 88 3c 76 32 35 4d bd 54 e4 3f
       4.275399520870442e-17 0.6353441722836368
000600 d2 74 71 27 99 33 d6 3f 1b c5 7d 43 b4 c5 d0 3f
       0.34689930774568467 0.26206690398164917
000610 52 0a a7 1d d6 21 a9 bc c7 ea b7 7d 4a 37 b2 bc
       -1.7438948478530737e-16 -2.5279751061636433e-16
000620 17 e7 9c 5a 21 c4 d7 3f 8a ab e1 20 14 ab d5 3f
       0.37134584282795075 0.33856681071363737
000630 f4 76 f7 d6 bb fd c1 3f 5e 41 52 64 ee a3 c1 bc
       0.14055583950442208 -4.896182437656137e-16
000640 30 3e d2 a9 ef d4 9e bc 80 34 d3 7e f7 f5 9b bc
       -1.0696923198855838e-16 -9.700853915390708e-17
000650 a3 e8 de e3 64 97 a0 3f 3c 90 18 61 37 a9 c6 bc
       0.03240504533410273 -6.289691342966668e-16
000660 00 f0 3b 85 81 e8 ba bc b9 10 88 ca 17 56 d6 3f
       -3.7342665522524666e-16 0.34900469568698217
000670 b7 ec e0 06 11 c2 d9 bc 14 ea 15 dd 6d 49 c4 3c
       -1.4298602473934045e-15 5.630727172227968e-16
000680 8a 97 8f 8f 47 64 70 3c 2e 12 76 96 ec 2d d8 3f
       1.4217548085816925e-17 0.377802988943844
000690 30 f4 21 82 54 17 dc 3f 11 36 5c 56 26 07 e4 3f
       0.43892395694985264 0.6258727728579193
0006a0 e7 6e 1b 1c 0a fc a0 3c 43 95 55 40 bf 0a b7 3c
       1.1785384656520772e-16 3.197717197052996e-16
0006b0 08 16 23 bf 74 a1 df 3f 54 3f 31 f4 4d 00 e1 3f
       0.4942294947216799 0.5312871713049199
0006c0 9d d4 73 2d 9d a8 e9 3f c3 f0 8f 4d 87 15 b8 bc
       0.8018327605956476 -3.342339711886305e-16
0006d0 bd fa fa 36 d2 72 bb bc db 99 34 6b 57 32 c8 3f
       -3.8092473790259997e-16 0.18903630003587932
0006e0 60 cb 47 57 98 cd a8 3f 2c 03 8e ec 3b c3 bd bc
       0.04844356599269051 -4.1303950701781626e-16
0006f0 29 b3 4d 8f ac 69 d4 3f b3 d0 03 41 4e 27 d3 bc
       0.318949832863654 -1.0632349340254415e-15
000700 39 27 82 b0 2e 43 dc 3f 3f 58 ff c3 4a 0e dc 3f
       0.44160048710965644 0.4383723176991942
000710 7e 01 80 39 8b 4e d1 3f 1e bd 45 50 3b f7 e4 3f
       0.27041893592106436 0.655179650098862
000720 d0 66 d0 8e ae de b1 3c ae 9b ba 82 3e 1a d3 3f
       2.4799400091366933e-16 0.2984768177652154
000730 91 44 53 5c 19 60 e3 3f 80 07 5d 9d b7 46 c5 3f
       0.6054808428981621 0.1662206190467792
000740 86 46 45 94 ff b4 c4 3f b9 be d3 f6 d4 4e ac bc
       0.16177363147521734 -1.9642577200415923e-16
000750 66 a9 96 44 9a 4e c6 3f d0 b4 b2 db 16 dd a2 bc
       0.17427376126336042 -1.3089272747891014e-16
000760 2e 7f 2d 7c 67 6b 8a 3c 12 f4 f8 e5 69 37 a7 3c
       4.5830609805221144e-17 1.6109655019885258e-16
000770 7a 7b 0c d7 20 f8 c7 3f 9c d4 73 2d 9d a8 e9 3f
       0.18725977421214762 0.8018327605956475
000780 15 6f a5 3f bb e7 a3 3f 03 8e 31 e6 5a 67 c8 3f
       0.03887734558040116 0.19065414657517019
000790 58 11 e4 cb 59 7f cb bc de 4b 47 10 54 d9 b6 3c
       -7.632079394878814e-16 3.1709272650053886e-16
0007a0 dd ad 64 ae 5e 32 d7 3f 9e d4 73 2d 9d a8 e9 3f
       0.36244933157533216 0.8018327605956477
0007b0 37 05 5b 55 4b 9e be bc 60 7a c0 50 cc 10 b4 bc
       -4.2491478386928495e-16 -2.7846638337096656e-16
0007c0 0f d7 18 bf e1 92 9d 3f 0d e9 06 9f 06 05 e2 3f
       0.02888062218536108 0.5631135087963074
0007d0 10 2d 03 6e 4a 26 99 bc ce c1 02 9e 6d 34 c1 bc
       -8.725511010818444e-17 -4.775290614651321e-16
0007e0 ee 7b e2 db fa 1f 84 bc ca 76 0e f9 49 20 ba 3f
       -3.49111738709011e-17 0.10205519037705382
0007f0 9a 5f a9 00 a9 26 e1 3f c7 6d f1 04 7b 68 80 bc
       0.5359692585870903 -2.846356332173813e-17
