Modules/SVM/kernelAlphas_0.8018327605956472_5.npy (npy, 7104 bytes, 1 tensors)

array f8 [872]
0	0x3cb4235b759f2c70	2.7947247725213806e-16
1	0x3cd53db8b4905e5d	1.1791178938589939e-15
2	0x3fe2ef16abb8d4f5	0.5916856149621298
3	0x3c921331a22b86a8	6.271017072550616e-17
4	0xbcb51093114f42f0	-2.9233204848108164e-16
5	0x3ce1d0016b321db2	1.977587166041527e-15
6	0x3cedf835de8ae69b	3.3272908850791945e-15
7	0x3fb7d098a433f410	0.09302667626248273
8	0x3cdba52922af39c0	1.5346145980481213e-15
9	0xbcc465a3cdf97997	-5.661313281961284e-16
10	0x3cedd4c2a7b1dc8e	3.311916874134171e-15
11	0xbcec2d338f7bbefb	-3.1282274549091777e-15
12	0x3ce47f931ebed590	2.2757727507553657e-15
13	0xbcea1e35e5666449	-2.8996815936292886e-15
14	0x3fe9a89d2d73d485	0.8018327605956449
15	0x3cdce908af61d494	1.6048434122674786e-15
16	0x3cd071366cf815d3	9.127274891259007e-16
17	0x3fcd25ac5a02b978	0.2277121963028994
18	0x3cbd640313467770	4.0787750850787856e-16
19	0x3cd88d47f63b764a	1.362903084867786e-15
20	0x3cec02c11d1797e9	3.109818977921844e-15
21	0x3cda0e19f120a49b	1.4463476717433555e-15
22	0x3fdab30f774b1528	0.41717898034797196
23	0xbcda1df2c020329a	-1.4497839222772104e-15
24	0x3cab5a9f1d69e0e1	1.8980643723858895e-16
25	0x3cd330a76c2fb704	1.0652620267106763e-15
26	0x3fd639dc564e407f	0.34728153637207265
27	0x3fe06e30f7cd222c	0.5134510841244881
28	0x3cefae2c3ec0c39e	3.5172268017067546e-15
29	0x3cc6da2e65030942	6.342779197719114e-16
30	0x3cb866f27c34caaa	3.386476867015069e-16
31	0x3cc96e299e9de3c6	7.058332408728942e-16
32	0x3c8f02b8c18b489c	5.379487073387229e-17
33	0x3fe4506d486b60d6	0.6348177351419746
34	0x3c97b0eb0f9e6880	8.219496870070246e-17
35	0x3cc8562972c4c502	6.754755075026611e-16
36	0x3cd5e488a00d0584	1.2152895209664715e-15
37	0x3cae4a7356f6a210	2.1018480320215535e-16
38	0x3cc1233aacb1c04a	4.756643427236816e-16
39	0xbca5d5e75f6337c0	-1.5151464607826313e-16
40	0x3c95c595ccf65bc0	7.553616422031073e-17
41	0xbcbcafe46be13730	-3.9811319774208277e-16
42	0x3ce45e16c2c62523	2.261250609291688e-15
43	0x3ce0eb61166a7353	1.8784363163411236e-15
44	0xbce4cef8e733c776	-2.3102059665731883e-15
45	0x3f817e5046219e90	0.008541705265272342
46	0x3ce5960b4ed2d716	2.3965396383975917e-15
47	0x3cd1e3c89030922e	9.930822332354743e-16
48	0x3fcd25acdb3e5284	0.2277122564816133
49	0x3fa1776e114587d1	0.03411430321536069
50	0x3fca402cbd575da8	0.20508345837764108
51	0xbccedf1d62fa8cbe	-8.568574226395694e-16
52	0xbccae4ff92aebfd1	-7.464730149058258e-16
53	0x3fd6f63a2b75d1e1	0.3587785171905847
54	0x3faf446f49186ce1	0.06106899039533587
55	0x3fc3e7b8fe7dd6dd	0.1555091135630197
56	0x3cd3be98b69ead9a	1.0960409091946833e-15
57	0x3cf014665936fbc7	3.570407683750522e-15
58	0x3cc64f65c2b2d194	6.192309579719741e-16
59	0x3fd7867c803e1224	0.3675833942764106
60	0x3cf02961116295a3	3.588604388931387e-15
61	0x3ca26318c7536d48	1.2758611418532784e-16
62	0x3cc0b86e704ffe80	4.640853024413021e-16
63	0x3cd7c98f15af1dce	1.3204626031108029e-15
64	0x3ce2490ca4f887aa	2.0300815682379046e-15
65	0x3cd963dfe81f87e0	1.4094356401750304e-15
66	0x3cd71ef137efdf41	1.2834660113741401e-15
67	0x3fcd7b1c7e72a83d	0.23031955885136482
68	0x3ce16a358497cc2b	1.9334399768951615e-15
69	0x3cb73cac2f6c7680	3.2247818774187224e-16
70	0x3ce80968fbe66b6b	2.6686162367092295e-15
71	0x3cd637a9774b3f8e	1.2333150942636313e-15
72	0x3ce72117df5b92c6	2.5678648668875704e-15
73	0x3fe9a89d2d73d422	0.8018327605956339
74	0x3fe9a89d2d73d468	0.8018327605956417
75	0x3cd7c1abe1e9a276	1.3187522722930589e-15
76	0x3fe9a89d2d73d41b	0.8018327605956331
77	0x3cd4af51b3fc437c	1.1482393058526261e-15
78	0x3fae8b2f5b4e332d	0.05965564717835146
79	0x3ce1ecfb1a53fe70	1.990153211709678e-15
80	0x3cb6b7afd30db240	3.1526901392096714e-16
81	0x3cd2f3d54f7c1946	1.0520736287562136e-15
82	0x3fe9a89d2d73d460	0.8018327605956408
83	0x3cc5e627794b0bf4	6.078204557005314e-16
84	0xbcaf2b288bada08b	-2.1627552129084458e-16
85	0xbce4e2e77db1d222	-2.3188500866418075e-15
86	0x3fd628e7bce669eb	0.3462466568686568
87	0x3cd2bca8ec7aca99	1.0401098078287744e-15
88	0x3ce98f21e4e806b1	2.8376313447787534e-15
89	0x3fccd0980562cf66	0.22511577857005277
90	0x3cc0ce098f076f5f	4.664278228732297e-16
91	0x3ce2c52b560b6e74	2.083909989746361e-15
92	0x3fe0ae5a6f3260b4	0.5212833568393962
93	0x3ceaa1748c31ad51	2.9565999233036433e-15
94	0xbcc69216b9522bc6	-6.264616392123885e-16
95	0x3cc0778a8c3dd146	4.570498929860582e-16
96	0x3ceb18f1fc6b58ff	3.0084204475953465e-15
97	0x3cd33976a47dce5c	1.067172272304497e-15
98	0x3cc6edd961a280f7	6.364103196297145e-16
99	0x3cb3cb88ae07ee9a	2.7471156347446557e-16
100	0x3cedf446d43c913a	3.3255848925241015e-15
101	0x3cbf37bc63ce3d4c	4.3323287112238047e-16
102	0xbcb43bab354859e2	-2.80790407297968e-16
103	0x3cd85c6bd53a2fa0	1.3523082875591961e-15
104	0x3ce0e9833c4bf208	1.8776268035179176e-15
105	0x3ca967571e2ea6d0	1.762733921582112e-16
106	0x3caf789116258778	2.1837367917036797e-16
107	0xbcdf086a1ef8b3e5	-1.7226702996134591e-15
108	0x3ce4e6a89b04b074	2.3204782780144313e-15
109	0x3fdd07fe3959b859	0.4536128578246284
110	0x3cb55ae58913ce90	2.963610597642621e-16
111	0x3ce048363d6a3c90	1.8076737479364264e-15
112	0x3fe67d510cd51a72	0.7027974367745868
113	0x3fccd9b0cbe7b0ce	0.22539339023877009
114	0xbcc3e39293631714	-5.52029403248975e-16
115	0x3fdec3d8ba6df1db	0.4807035275078115
116	0xbccbcf5b1fdca3d9	-7.718821193025814e-16
117	0x3fe189d535997fea	0.5480752989642472
118	0x3ce2ba1995e04738	2.0791094294023117e-15
119	0x3fdf5d58db15cb15	0.4900724544051383
120	0x3cd4d66d8dbbe11a	1.1567196731569354e-15
121	0x3fb636d7f46623ff	0.0867743465115751
122	0x3cc0286b7aee0070	4.484715381728022e-16
123	0x3cb2001f1dc5bc90	2.4980676967316053e-16
124	0x3cdaf63a5bed2f00	1.4966821109692001e-15
125	0x3fd7659a2662dbf3	0.36557630299233707
126	0xbccdb3241dde64c2	-8.2433420774744e-16
127	0x3fba646a37801f39	0.10309470992080784
128	0x3ce64c1198a00d28	2.4754802093279667e-15
129	0x3ce0d9f184dbfe34	1.870874737041981e-15
130	0x3cedcb48fe6eb940	3.307807644256325e-15
131	0x3fe48c45383c8613	0.6421228502624124
132	0x3cadb719a6712168	2.0619086396915399e-16
133	0x3fd8495f89ef37e1	0.3794783446327284
134	0x3fe0d2436c41a7a7	0.5256669153579779
135	0x3fbfe99b3af2fd68	0.12465830029667802
136	0x3cd1f967f46e7d5f	9.977708922710525e-16
137	0x3cd476badf423298	1.1359684827246945e-15
138	0x3cbf6826ee0b654c	4.3585751705797895e-16
139	0x3cb75c4c0695c901	3.2419254864622932e-16
140	0xbcd2a63fcbaaf62d	-1.0352502712451213e-15
141	0x3cd8466c60cb5cb1	1.3475382597890368e-15
142	0x3ce35e7dd90eba7e	2.1504029430763318e-15
143	0x3ce0d9a6efe69b66	1.8707483904408638e-15
144	0x3fd9ef695c7fdc57	0.40523752244138705
145	0x3cc3ea9b603fe910	5.527920718182113e-16
146	0x3fa49035d4f38d9c	0.04016273712638993
147	0x3fd465de0bc80abc	0.3187174906781072
148	0x3ce26e15654b2fc0	2.0461425856038897e-15
149	0xbcd0638b37967853	-9.097635442195207e-16
150	0x3fd85a1a63e27890	0.38049945597038803
151	0x3cd609b07a85d3be	1.2233463741906767e-15
152	0x3ce8e4f62e5c76f5	2.763831544233724e-15
153	0x3cd58c2752fa46da	1.1961251455209437e-15
154	0xbcd266d14f15b5dc	-1.021495738036995e-15
155	0xbcce5ab5dd72f24c	-8.425021108596184e-16
156	0xbccf1537b292d1f4	-8.627232574778663e-16
157	0xbcb4571bbee3ba08	-2.8227791097913603e-16
158	0x3fc4ec3d63dc953e	0.16345946670586814
159	0x3cd25ffec27f368f	1.0200163533448144e-15
160	0x3cee53e5ec5e240a	3.3670540912423094e-15
161	0x3cd1520499c322d8	9.614743834485443e-16
162	0x3fd9dd39c1d8678c	0.4041275399227906
163	0xbcc3d1c8ef63227c	-5.501008614295976e-16
164	0x3cdfd98cea0000f6	1.768019421308581e-15
165	0x3cf6829bf0c0dc06	4.998266681060632e-15
166	0x3cbe4c1ff7118688	4.2046037136545913e-16
167	0xbcc79c659a51a91a	-6.553348235134228e-16
168	0x3cc796abb5c0f695	6.547139937501151e-16
169	0x3cc192b219f5c503	4.877495660635648e-16
170	0x3fd480d12e1097d9	0.3203623723842362
171	0xbc7debe5a08e94b8	-2.5952740462447255e-17
172	0x3cb80acaf4a45bf0	3.336519860007685e-16
173	0x3ce09aa49ecaaa9c	1.843422570827156e-15
174	0x3cfaae4403a9664b	5.924311111884872e-15
175	0xbcc9e0af881f944b	-7.182498596344857e-16
176	0x3ce0cd8d65ce820b	1.8655009545352287e-15
177	0x3cd0b810c11ec5fb	9.280912511559171e-16
178	0x3ce6e5f6e953b81c	2.5422218574138175e-15
179	0x3cd2d1a4e4c7984a	1.0446600433443067e-15
180	0x3fd3597da1cea939	0.30233708192340064
181	0x3fc7e0f643a687a3	0.18655279448745174
182	0x3fcd2592b1dc773c	0.22770913776997215
183	0x3cc2d06110c1a23a	5.221928750880688e-16
184	0xbccf37ff652cb024	-8.66494120113215e-16
185	0x3c7a5dac915c4d00	2.2868785360087133e-17
186	0xbcbcf6d7df647530	-4.0195945814716455e-16
187	0x3fe55ca098cefd41	0.6675570473234204
188	0x3ce09322c12a067a	1.8401668036360057e-15
189	0x3ce0d4e1da36a981	1.8686797924692568e-15
190	0x3ce168f398afb147	1.932894620643698e-15
191	0x3fdb223a423760a8	0.4239640852588402
192	0xbcaf0f3a88570b5b	-2.1551848421358313e-16
193	0x3fe9a89d2d73d453	0.8018327605956393
194	0x3cb7583b0c889393	3.2397211324211043e-16
195	0x3cbdcf875df133ac	4.137060039809762e-16
196	0x3ce2a8ef86134d61	2.0716655993016636e-15
197	0x3fe47903f661dca2	0.63977239724672
198	0x3fc397812af56763	0.15306105229938813
199	0x3ce795c4da443acc	2.618464887400004e-15
200	0x3ce51a28ad4e4829	2.342812963783965e-15
201	0x3cbea435ba7a9aa6	4.252354694871151e-16
202	0x3cce3df9a8a5feca	8.393866363283672e-16
203	0xbccf569d01362770	-8.698134768585547e-16
204	0x3ce604db82422ca7	2.4445972400606244e-15
205	0x3fe167f711dc7137	0.5439410542344721
206	0xbcde9e21b496635a	-1.6996238751892977e-15
207	0x3ce9d103d6644d04	2.8662033641062877e-15
208	0x3cd4723aa0b3ccca	1.1349924937882188e-15
209	0x3cdc11301803262a	1.5580392588931778e-15
210	0x3fe9a89d2d73d424	0.8018327605956341
211	0x3fd3503688d7308e	0.3017708145459971
212	0xbcd15ba82b514e62	-9.635644953316811e-16
213	0xbcbfcd4f64d4f699	-4.4134130661711555e-16
214	0x3fd60838b06cb04e	0.34425179699860997
215	0x3ce6b5589457f592	2.5211369509175505e-15
216	0x3ce9ca9fec5c973c	2.8634320176873585e-15
217	0x3cd0a7ae4f1ad543	9.24538417729846e-16
218	0x3cc67aa14bcd3c5c	6.239182416038102e-16
219	0x3ce4bc0ccb30feee	2.301999726019784e-15
220	0x3ce061e8724e0116	1.818817663385295e-15
221	0x3cc7db3e9a8fc9b4	6.621487804590987e-16
222	0x3ccb0e08f7cc0bd4	7.509222227410897e-16
223	0xbcc86ee7a98667db	-6.781581514334658e-16
224	0x3cc950dfcfe0d730	7.026577958499975e-16
225	0x3ce414b0beb8d62b	2.2294190843200757e-15
226	0x3cbdfeba763dbc7f	4.1626469885602554e-16
227	0xbccb2113aea1f54f	-7.529867445096655e-16
228	0x3cda2a2dbd251792	1.452435972572155e-15
229	0xbcafe02a069b6f38	-2.2118169284267572e-16
230	0x3fba4a4d8f794271	0.10269627335333965
231	0x3cd3ea188add148c	1.105473323318048e-15
232	0x3cd7c6b25b5da3bc	1.3198419585179735e-15
233	0x3ce75dcc108ba21b	2.5941909763853532e-15
234	0x3ccf4940743b9539	8.683648172889002e-16
235	0x3cde525ca9320ba7	1.6831939394185617e-15
236	0x3cb52355f37b8c92	2.933490986201799e-16
237	0x3ccfa93468854652	8.787680565709649e-16
238	0x3ce02390a49ea2b5	1.791780704665454e-15
239	0x3fd040dce89ee857	0.25395891873234205
240	0x3ce2fb06bfda7995	2.107266776417614e-15
241	0x3fccbf636ec5c3bd	0.22459071072401385
242	0xbccac9bb38dec306	-7.435167213376717e-16
243	0xbcc63bf074f604e0	-6.17121293810934e-16
244	0x3cca716b8ca72b24	7.339419995089888e-16
245	0x3fcb9740daff9160	0.21555338567044213
246	0x3cdcc4b02e996d2a	1.5969621916195904e-15
247	0xbcf2dfb4551617f2	-4.190835546051843e-15
248	0x3ce04e156a451f74	1.8102202258015265e-15
249	0x3cb984f41347eea4	3.5415211449240534e-16
250	0x3c91542cdd93a210	6.012138562591205e-17
251	0xbcb968fe8d8324d6	-3.526364501406518e-16
252	0x3ccada86aac6864b	7.453376070983451e-16
253	0x3cd821343e195d7f	1.339467615070479e-15
254	0x3cd8caa04fd2409f	1.3762051866966854e-15
255	0xbca85ce3e15a9a18	-1.690512464545627e-16
