Modules/SVM/kernelAlphas_0.8018327605956472_100.npy (npy, 7104 bytes, 1 tensors)

array f8 [872]
0	0x3ce1f5eb4f67a7e9	1.9940295857091444e-15
1	0x3ce368b0937b1de8	2.1548256887075235e-15
2	0x3d05764146375371	9.531013092754291e-15
3	0xbcfc3d3266f90cb9	-6.270328773341947e-15
4	0xbcdee98bba562442	-1.715976712290958e-15
5	0xbcf31590ebd101fe	-4.237553102055522e-15
6	0x3cb3524f4a597ae0	2.6813998765686426e-16
7	0xbcbc27e1056c8a10	-3.9073990294504705e-16
8	0x3cf6eb3e0a8d69c6	5.089021520608671e-15
9	0x3cb63d73cba6d140	3.086426690519128e-16
10	0x3cef959a9425c503	3.5065716923240416e-15
11	0x3d1caa5d52405edb	2.5460066472816503e-14
12	0xbce983bdc9147620	-2.8326912644905344e-15
13	0x3cd36fad5825f530	1.0789279899811201e-15
14	0x3ccf7e461cd9a940	8.74113485339684e-16
15	0x3cecc60d7f535830	3.1945161464378256e-15
16	0x3ccf15387bfc8d98	8.627235906877558e-16
17	0x3fe9a89d2d73d494	0.8018327605956466
18	0x3cd00ae0d618b810	8.90537267811371e-16
19	0xbcf0fe387d400b24	-3.773214953301938e-15
20	0xbcf4f90763e8ac2a	-4.656890210465239e-15
21	0x3cf07eff8bbcf16b	3.662867080811048e-15
22	0x3d00f66cbc982ccd	7.532906161210816e-15
23	0xbcc92c799fabc62f	-6.987113895964672e-16
24	0xbce012ad280ddbd8	-1.7844564334979328e-15
25	0xbcc6bbf9bd45ada5	-6.310030128958052e-16
26	0xbccb040b373b72b0	-7.498389725462258e-16
27	0x3cd1973f6f36fc65	9.764862075949906e-16
28	0xbcd88e6cb0bd3590	-1.3631510355877028e-15
29	0xbcc7c6e96020e730	-6.599442805443419e-16
30	0x3cbe89425f8ae284	4.2377447419050837e-16
31	0xbce80c77a4f25c33	-2.6699421148955794e-15
32	0x3cee6dffb531baec	3.378373474441959e-15
33	0x3fd0480c9e91e237	0.25439753995263764
34	0x3c9a1f12e09eacc0	9.062674845498855e-17
35	0x3cf33af17bf07f3d	4.269972654464926e-15
36	0x3cf1687ed711bc30	3.865393655499933e-15
37	0x3cdc84158530706a	1.5829534002068756e-15
38	0x3ce49e7985b85112	2.2891734934092788e-15
39	0xbcca5de512aa2afc	-7.318250623611139e-16
40	0x3cf59c0f5da9316d	4.798297196120512e-15
41	0xbcf17fd96bb6a54d	-3.885649874624047e-15
42	0x3ce480b164a9fd98	2.276257716283543e-15
43	0x3cec4db095d26872	3.1423170428986346e-15
44	0x3cf0bac7a9b63ad6	3.714719446409796e-15
45	0x3fc3fd7fc2d40562	0.1561736775693517
46	0xbce0f4de02e4def6	-1.8825510732144816e-15
47	0xbcf3c9768b74b27e	-4.393588848145156e-15
48	0x3fe9a89d2d73d47b	0.8018327605956438
49	0xbcc13b6eaf45a55e	-4.782884550587459e-16
50	0x3fe9a89d2d73d491	0.8018327605956462
51	0xbcdb12fda2d7f2d4	-1.502919049204671e-15
52	0xbcc1b5777a9d8680	-4.915194460980942e-16
53	0x3cebab78bec1ffe4	3.0719661453225747e-15
54	0x3ca2cce5eb0d9780	1.3045386488380204e-16
55	0x3cbc2c201c540990	3.909701030944474e-16
56	0xbcd728c482f4f958	-1.2855965474566092e-15
57	0xbcfe8c34f1fae7a8	-6.782948176502266e-15
58	0xbce281e5d6c767fa	-2.0547356388031133e-15
59	0x3fe9a89d2d73d4a8	0.8018327605956488
60	0x3cd6a38dde125654	1.2567104843296494e-15
61	0x3cc3df0cb4a11470	5.515390261670342e-16
62	0x3cd7e80ca7285d48	1.327074176595971e-15
63	0x3ce370106782136d	2.1580237941286676e-15
64	0xbd0ab668bd9f70e8	-1.1862748879415684e-14
65	0x3cf1c464bebecc1e	3.945102522043214e-15
66	0xbcdbdcd81cca70e0	-1.5466890332106466e-15
67	0x3ce1006a0f6821fa	1.8875588148010253e-15
68	0xbcdf2ffc380c7728	-1.7312508263426339e-15
69	0xbcab9e3bf302a544	-1.9163908136151748e-16
70	0xbcd46ac9d6978320	-1.133379074329101e-15
71	0xbcccc38b9b275b00	-7.983571850712297e-16
72	0x3fe9a89d2d73d484	0.8018327605956448
73	0x3fe9a89d2d73d4b4	0.8018327605956501
74	0x3cdc7732052b65d8	1.5801586149322529e-15
75	0x3cd8fb02b27d09d0	1.3866968632435334e-15
76	0x3fe9a89d2d73d4d3	0.8018327605956536
77	0x3cf5c30b4e06783c	4.832110544438954e-15
78	0xbcc5dbb99ede6f60	-6.066897288797872e-16
79	0xbd07903adada186a	-1.0464250823342112e-14
80	0x3fe9a89d2d73d49d	0.8018327605956476
81	0xbce54297de51f4d0	-2.3603485642078054e-15
82	0x3fe9a89d2d73d4ab	0.8018327605956491
83	0xbcc310717de29573	-5.291387257938626e-16
84	0x3cc1329bb6e73857	4.77331743969499e-16
85	0x3ce9106d74d8d59e	2.7826818818779474e-15
86	0xbce41322945ff458	-2.2287445658638263e-15
87	0x3fd6116c55607290	0.3448134263760858
88	0x3cdbcd4886395260	1.5433148027977443e-15
89	0x3cfccdad060e556f	6.395644321138374e-15
90	0x3fe9a89d2d73d4ae	0.8018327605956495
91	0xbca74fd852945ec0	-1.6175876312421096e-16
92	0xbcd37812293cbdb0	-1.0807481085692805e-15
93	0x3cb6cc08970ee8c0	3.1637201294961136e-16
94	0xbc9f058b0a7a8e00	-1.0762797891202208e-16
95	0xbca94c541f1de254	-1.755412384409292e-16
96	0x3cd96c65c528079e	1.4112837503705004e-15
97	0x3cec62679a11197d	3.1513007024275325e-15
98	0xbcbc828a7e1be926	-3.9565469969158248e-16
99	0xbcca2cc5e8ce65c8	-7.264992734562099e-16
100	0xbcd7b58b3b259ff0	-1.3161225302434868e-15
101	0xbd001dfbb5c837d7	-7.157439992294593e-15
102	0x3cd317f58ed38940	1.0599071990320377e-15
103	0xbce8b5eee8f0f5fe	-2.7434362255471296e-15
104	0x3ce072cbd42e0a08	1.8261417579305786e-15
105	0x3cbab3d1ac784580	3.7057049258209866e-16
106	0xbce734aad70e8f34	-2.57635377615463e-15
107	0x3ce279dcafb527c7	2.0512506867059865e-15
108	0xbce72ea630d148c4	-2.5737438145973078e-15
109	0xbcce6f28b346bb70	-8.447191498301569e-16
110	0x3cd4d2061a014cec	1.1557646841108232e-15
111	0x3ce704fa2804f312	2.5556714614132014e-15
112	0x3fe9a89d2d73d452	0.8018327605956392
113	0xbca54cd64c1be400	-1.4779944571903632e-16
114	0xbcf096a302ff6932	-3.683370244654586e-15
115	0x3fe9a89d2d73d4a1	0.801832760595648
116	0x3cce71c02ee663d8	8.450001457703669e-16
117	0x3d09dfd42a183b20	1.1490511263509102e-14
118	0xbcc78ebcdc14d704	-6.538538951999453e-16
119	0xbd0259f5aff8db94	-8.149661009182398e-15
120	0x3cd8fe9f255767b8	1.3874799017034807e-15
121	0x3cd93637b6aecb84	1.3995353555030463e-15
122	0x3ca4afeac0835220	1.4354611791797484e-16
123	0x3cc5a38cc4780da0	6.005992006766546e-16
124	0x3cd358e804e49a34	1.0739903594629126e-15
125	0x3fe9a89d2d73d4c0	0.8018327605956515
126	0x3fe9a89d2d73d2fe	0.8018327605956015
127	0xbcc7aab0344884d8	-6.568843014865032e-16
128	0xbcf5e1ab0df48377	-4.858672649703591e-15
129	0x3cd62f65f28e1864	1.23152318038408e-15
130	0x3ca954855ee5d640	1.7576329333145872e-16
131	0x3fe9a89d2d73d437	0.8018327605956362
132	0xbcea6af28c2d6436	-2.932960927700891e-15
133	0x3cbd7f00ef6a3470	4.0934072826123493e-16
134	0xbcc72b07f1ea06d1	-6.430436733298849e-16
135	0x3cd0b2db65cf1720	9.269618541136052e-16
136	0xbc98b650745358c0	-8.573754600959221e-17
137	0x3cf8f690cbb5d72e	5.5429320928070826e-15
138	0xbcc5da733e748508	-6.065515030062449e-16
139	0x3cfae1a52099099c	5.9688755922717215e-15
140	0xbcc97c8632313a5c	-7.073903315731987e-16
141	0x3d33f2090419e4fd	7.08604733061306e-14
142	0x3ce28615a64261ed	2.056551356366091e-15
143	0x3d05e67e68b74d84	9.725716387346956e-15
144	0xbce266e01f03436d	-2.0430165689482086e-15
145	0xbc7f5b057b59a400	-2.719660642194382e-17
146	0xbce76df33e2c6fec	-2.601196240800852e-15
147	0x3fe71ca6b07cb057	0.7222474524510386
148	0x3cd5d81823cca6b4	1.2125921569488626e-15
149	0x3cba01d470a1d020	3.609216790250792e-16
150	0xbcda318584da1492	-1.4540282082550322e-15
151	0x3ccaa4d0fbb5f9b0	7.395143894822841e-16
152	0x3cd2d9b230166326	1.0464060274211497e-15
153	0xbce99c8bfb291094	-2.8434489143254927e-15
154	0xbcbe4d9c372080e4	-4.205408924834039e-16
155	0xbcd5373f367a5522	-1.1777139430815554e-15
156	0xbd16e6bbf4d4cfb2	-2.0340445316191064e-14
157	0x3ce1cc32414d1dac	1.9759351745596267e-15
158	0x3ce7ccab01a37b70	2.6422735500239983e-15
159	0xbcf7db017d514c3e	-5.2969831805911934e-15
160	0x3cecbd5c0d6b9fb1	3.190746096061431e-15
161	0xbcd59b6c48c290fe	-1.1994361635044964e-15
162	0xbcd8be1819b5ed40	-1.3734877259647806e-15
163	0xbcefd0c453b1a4c0	-3.532229587844008e-15
164	0xbcd0bc3b70e30248	-9.28994769840404e-16
165	0x3cd973574bf91020	1.4127893739882708e-15
166	0xbcd495760fc49742	-1.1426322514247145e-15
167	0xbcc7d9b981b842b6	-6.619839914533757e-16
168	0xbcf2a29fc5b9d400	-4.137856820039518e-15
169	0xbcc9002b31531688	-6.939076831997325e-16
170	0xbcd1929401186af8	-9.754736388684691e-16
171	0xbcd55167f2d25797	-1.1833862988736882e-15
172	0x3cf04f665d09c635	3.621582076894133e-15
173	0xbcb758eaaf525840	-3.2400930558876046e-16
174	0x3fe9a89d2d73d49a	0.8018327605956472
175	0xbce733cd04079643	-2.5759779911308365e-15
176	0xbcf03d140208968e	-3.605690534367348e-15
177	0x3cf0ad45f7b09bd4	3.703004318714174e-15
178	0xbcebd89ec45a28f8	-3.0915461959517853e-15
179	0xbce3c277fb773efa	-2.193761093275226e-15
180	0x3ccaccd7b8866f80	7.438540516381207e-16
181	0x3ce21a8cde344998	2.0099157865687297e-15
182	0x3fe9a89d2d73d480	0.8018327605956443
183	0x3ce7ffeedc6aa790	2.664506224509108e-15
184	0x3d0140586dc43b21	7.66113808660423e-15
185	0xbcbccbf9e7e570b0	-3.9963563029058196e-16
186	0x3fe9a89d2d73d500	0.8018327605956586
187	0x3ce6b9d09620dd18	2.52307497411157e-15
188	0xbcb17b19fe78f460	-2.425957405442529e-16
189	0x3cc79dbd183a79e0	6.554802979635651e-16
190	0x3ce04f7ce23052f2	1.8108291890134052e-15
191	0xbce19917d77dc73c	-1.953772704336398e-15
192	0x3cce3abc3bc8fc70	8.390353610724796e-16
193	0x3fe9a89d2d73d48d	0.8018327605956458
194	0xbcd0874c30009b40	-9.17516411687741e-16
195	0x3cd9a48d209064e0	1.4234601514299007e-15
196	0xbcf0399a088f85e1	-3.60267518346043e-15
197	0x3fe9a89d2d73d4c2	0.8018327605956517
198	0x3fe44a58b2383422	0.6340754967546938
199	0xbce475ce5b84ea64	-2.271536294120177e-15
200	0x3cbcefa49836bb60	4.015691288391455e-16
201	0xbcdafd58c11c33dc	-1.498225739787771e-15
202	0x3cd1ebd9b6910218	9.948314832494287e-16
203	0x3fe9a89d2d73d4a5	0.8018327605956485
204	0xbce30f96beacfb28	-2.116184331492874e-15
205	0xbcc8d20c10548e88	-6.889071696111879e-16
206	0x3fe9a89d2d73d491	0.8018327605956462
207	0x3ce1705ffc25a1f9	1.9361140040189926e-15
208	0xbce069792e03b79c	-1.8220986171164306e-15
209	0x3ccb91dec666cc50	7.652158220080054e-16
210	0x3fe9a89d2d73d483	0.8018327605956447
211	0x3ce7c5e633e8dfb2	2.6393380664947916e-15
212	0x3fe9a89d2d73d11f	0.8018327605955483
213	0x3cd026fca0a3e6fe	8.96632340027703e-16
214	0xbcb0a454188c9d70	-2.30952870737991e-16
215	0x3fe9a89d2d73d42c	0.801832760595635
216	0x3cb6dc7f308ee600	3.172644891317331e-16
217	0x3ce0fa29aa2b375c	1.8848476394332226e-15
218	0xbce52a4abc83987c	-2.3498095565680877e-15
219	0xbcd58b4294496978	-1.1959313910657805e-15
220	0xbccc14b7ed72fff2	-7.794024179240334e-16
221	0xbce876b6aff80e04	-2.7160190860994146e-15
222	0x3cc511811b8e0ba6	5.847649108322311e-16
223	0xbcc1d4efccb41670	-4.949314306130602e-16
224	0xbcdfeb5451c5c184	-1.7718746116058345e-15
225	0x3cd99c2a8d06eb04	1.421641930566057e-15
226	0xbce553d4c20d4f96	-2.3678242899373722e-15
227	0xbcea5bf216c9284e	-2.9264549378339362e-15
228	0x3cd5cc0d6fe5988f	1.209981006157787e-15
229	0xbccfdf212bc999c8	-8.846146010148995e-16
230	0x3cdd4cf20d0b6360	1.6265082838620729e-15
231	0x3cec95479b554aa8	3.173364225017781e-15
232	0xbce5c309eb83719c	-2.4160529262570425e-15
233	0x3cf269d5daf098f4	4.088600440854981e-15
234	0x3cd7577b454f3d4c	1.295726010498685e-15
235	0xbcc0061856557920	-4.447500383763436e-16
236	0x3cefd3c2ec55639a	3.5335282524035487e-15
237	0x3cd4a48825413b30	1.1459001756293318e-15
238	0x3cf0c0b08c1ee879	3.719845298171625e-15
239	0xbcd56e72641e8c0f	-1.1896835166741395e-15
240	0x3cd72b678f972a70	1.2861683364969547e-15
241	0x3fe9a89d2d73d4c0	0.8018327605956515
242	0x3ce03e44f8f2bdcb	1.8033618971597704e-15
243	0x3cf51408505e6a0f	4.680312106912026e-15
244	0x3d2236f893cea1a8	3.235586108317609e-14
245	0xbd0b8ad6110394da	-1.2231251076398756e-14
246	0x3cdc1b95d5a391da	1.560293840987753e-15
247	0x3d36916ec6c99d5c	8.017798537259543e-14
248	0xbcec2b531cde7783	-3.1274135448255235e-15
249	0xbccbdba6e380bbe0	-7.732152493059567e-16
250	0x3ce295965ccdd218	2.063274617814865e-15
251	0x3cec305ae994768c	3.129595162295008e-15
252	0xbce004d5de4a216e	-1.7784538699007562e-15
253	0x3cc7614732674980	6.489251532877405e-16
254	0x3cf9ac907a187ad5	5.700790848959539e-15
255	0xbcdeff9591ef2364	-1.720755538499181e-15
