Modules/SVM/kernelAlphas_0.1145475372279496_100.npy (npy, 7104 bytes, 1 tensors)

array f8 [872]
000000 38 88 48 eb 24 74 07 3d 10 6b 88 93 d6 a9 1a bd
       1.041552992315141e-14 -2.3681883498220644e-14
000010 f2 4b 3b c6 fc 52 bd 3f dc 57 f6 36 fb 01 f6 3c
       0.11454753722800584 4.886699818587415e-15
000020 4a 94 7e e5 01 c2 0d bd 44 de f7 df 1f 8e e4 3c
       -1.3215136290922411e-14 2.2820827307876757e-15
000030 7d 55 3b c6 fc 52 bd 3f e2 21 3b c6 fc 52 bd 3f
       0.11454753722803974 0.1145475372278564
000040 3f d6 ca 9e 1b 8c 07 3d 61 2d db f3 fe 72 24 bd
       1.0457100275502821e-14 -3.632508119612108e-14
000050 aa 31 dd 3b 17 2f 1f bd 33 3d 3b c6 fc 52 bd 3f
       -2.7696909894746132e-14 0.11454753722795345
000060 a9 07 9c a2 cc bb 24 bd fe 70 82 88 6f 0d 1c bd
       -3.683025659606498e-14 -2.4915610119247923e-14
000070 0b 4a f9 9d 3b 49 25 3d 04 4b 3b c6 fc 52 bd 3f
       3.78116488067201e-14 0.11454753722800254
000080 5b 32 c8 a7 3a 5a f9 bc b1 5b 3b c6 fc 52 bd 3f
       -5.629376411765026e-15 0.11454753722806178
000090 e7 78 bb 09 84 a3 18 bd 96 4b 3b c6 fc 52 bd 3f
       -2.1883591374780436e-14 0.11454753722800456
0000a0 bc 2a 3b c6 fc 52 bd 3f 56 e6 25 a5 e4 8e 0d bd
       0.11454753722788785 -1.3126467178768691e-14
0000b0 d6 75 ca c6 fc 23 32 3d b4 1c 81 89 64 52 1d 3d
       6.444827183465796e-14 2.6043031353498807e-14
0000c0 66 1a 10 e5 7b df fc bc b0 d4 27 c9 f7 d3 e2 3c
       -6.411090377304616e-15 2.0903278730950293e-15
0000d0 1c 01 97 d0 54 e9 80 3f f7 56 3b c6 fc 52 bd 3f
       0.008257544150979394 0.11454753722804499
0000e0 15 35 3b c6 fc 52 bd 3f 6a 52 3b c6 fc 52 bd 3f
       0.11454753722792461 0.11454753722802882
0000f0 34 fb 6d 4e 07 02 25 bd 60 0b a1 f2 dc da f3 bc
       -3.731756945465168e-14 -4.4086809526197845e-15
000100 c8 b5 71 c0 3b 18 02 bd d6 2d 3b c6 fc 52 bd 3f
       -8.035644034230705e-15 0.11454753722789887
000110 65 5f fe cd 77 39 9c 3f 39 49 3b c6 fc 52 bd 3f
       0.02756297297273082 0.11454753722799617
000120 00 0c 35 30 9b 6b 90 bc d1 fa 40 38 50 4b 08 bd
       -5.696948723765199e-17 -1.0788788887212413e-14
000130 18 83 ad 91 a1 27 f4 3c be 5e 6c 69 a0 60 25 bd
       4.475266623529591e-15 -3.7973975412998546e-14
000140 04 c8 3d 0f a2 10 3b 3d 60 78 e9 bb b3 36 f0 bc
       9.615409919761354e-14 -3.600160175236629e-15
000150 70 8c ad d3 be 79 26 3d 4f 74 12 ac 8a 61 14 bd
       3.9924629001769587e-14 -1.8101984106509992e-14
000160 e8 19 6e 0c 37 ef 15 bd d7 4e 3b c6 fc 52 bd 3f
       -1.9481690682256232e-14 0.11454753722801612
000170 f4 8e 6d 23 e4 25 06 bd 0b b3 46 26 a2 37 04 bd
       -9.835693311178671e-15 -8.978292756041388e-15
000180 c1 60 3b c6 fc 52 bd 3f 51 1b 1b 4d 2e 50 0a 3d
       0.11454753722807977 1.1685411083280159e-14
000190 42 54 3b c6 fc 52 bd 3f f2 c4 2a 61 0e 4d 19 bd
       0.11454753722803537 -2.2471802787165474e-14
0001a0 fe 3c 3b c6 fc 52 bd 3f 43 c1 80 8b 88 05 1c bd
       0.11454753722795272 -2.4888193515281124e-14
0001b0 ab 55 3b c6 fc 52 bd 3f 0a 44 1f 51 f0 fd f6 bc
       0.11454753722804038 -5.105238053333596e-15
0001c0 5d fc a9 e9 57 41 01 bd 19 36 3b c6 fc 52 bd 3f
       -7.662869313355612e-15 0.11454753722792822
0001d0 12 c8 69 8a 46 48 2d bd 4a 53 3b c6 fc 52 bd 3f
       -5.201586071255899e-14 0.11454753722803193
0001e0 1f 5c 3b c6 fc 52 bd 3f a9 50 3b c6 fc 52 bd 3f
       0.11454753722806331 0.11454753722802259
0001f0 f2 7d bb de f7 e1 00 bd c2 d3 b7 fe 68 29 b1 3c
       -7.497419772476845e-15 2.381672407409229e-16
000200 02 54 3b c6 fc 52 bd 3f 64 51 95 a7 9f 29 23 bd
       0.11454753722803449 -3.403960204586981e-14
000210 73 d8 c6 0f 09 c8 25 bd fc ef e8 d0 f3 02 1e bd
       -3.8691518024102864e-14 -2.6655595808605237e-14
000220 e8 41 3b c6 fc 52 bd 3f 42 55 45 c5 c9 9d 39 3d
       0.11454753722797018 9.100759266139647e-14
000230 ac 47 3b c6 fc 52 bd 3f 20 4e 04 20 7c 26 fc bc
       0.11454753722799066 -6.25062923602532e-15
000240 d5 4d 3b c6 fc 52 bd 3f a9 4f 3b c6 fc 52 bd 3f
       0.11454753722801254 0.11454753722801904
000250 9f 54 a9 01 4f 2a 20 bd 04 b5 20 ae d7 f4 17 bd
       -2.871528444957136e-14 -2.1277571720965087e-14
000260 cf 50 3b c6 fc 52 bd 3f ae 54 09 9a bc c4 fd 3c
       0.11454753722802312 6.60993545090339e-15
000270 18 3c 79 84 ac 7c 1a bd 52 27 80 cc e2 ec 25 bd
       -2.352518838200892e-14 -3.894721998334515e-14
000280 eb 45 3b c6 fc 52 bd 3f f0 9b 0b 73 b8 90 05 bd
       0.11454753722798443 -9.576923465115344e-15
000290 00 55 3b c6 fc 52 bd 3f a6 52 41 bf 93 44 13 bd
       0.11454753722803801 -1.7113314713491423e-14
0002a0 bd cc 90 c5 70 9d 21 bd 91 aa 89 43 1e 6d 25 bd
       -3.1290529296874755e-14 -3.806065336539888e-14
0002b0 b4 c6 a0 fc d5 d3 2e bd 52 51 3b c6 fc 52 bd 3f
       -5.4760611920333734e-14 0.11454753722802494
0002c0 70 b7 57 c6 6c 55 10 bd 2b 4e 3b c6 fc 52 bd 3f
       -1.4507231879222997e-14 0.11454753722801374
0002d0 08 4d 3b c6 fc 52 bd 3f 78 82 9a f0 f3 33 ff 3c
       0.1145475372280097 6.928444701699624e-15
0002e0 6a fc 83 b0 cb a6 1f bd 8e 83 d5 3b 47 67 13 bd
       -2.8112219712397347e-14 -1.7233708407369312e-14
0002f0 72 9f f2 ea 72 13 09 bd e7 eb c0 a3 c5 de 17 bd
       -1.113596870535806e-14 -2.1200999393329708e-14
000300 0a 54 3b c6 fc 52 bd 3f 53 be e7 79 f3 d6 24 bd
       0.1145475372280346 -3.701865951885918e-14
000310 e1 4b ca 62 94 d2 20 bd a0 a3 0e 77 c9 a6 1d bd
       -2.9882899158084156e-14 -2.6335832726121154e-14
000320 ba 84 b8 cb 76 17 1d bd 85 1a 53 04 95 d2 10 bd
       -2.5838581434291023e-14 -1.4941458130602174e-14
000330 b1 59 7d 96 bc 35 27 3d 37 81 8e bd 05 29 12 3d
       4.122908036703498e-14 1.6129536677314113e-14
000340 cc c2 e6 db a2 35 1c bd d1 26 d4 c5 ca a8 13 bd
       -2.5055083590940038e-14 -1.7461005145681204e-14
000350 0b 80 5f af 02 56 b3 3f c0 b7 08 e8 91 ba b6 bc
       0.07553116590088409 -3.1542530885444197e-16
000360 28 21 3b c6 fc 52 bd 3f f9 da b0 01 46 0a 00 bd
       0.11454753722785382 -7.123248975567428e-15
000370 52 9c cc 21 e3 f1 f9 3c 4c 1e 1d 21 55 7c ec 3c
       5.76091885522658e-15 3.162545111435126e-15
000380 02 54 3b c6 fc 52 bd 3f 4f 03 13 c8 66 8e 23 bd
       0.11454753722803449 -3.4738888782186666e-14
000390 d0 a3 d3 da ed 4d dc bc b3 4a 3b c6 fc 52 bd 3f
       -1.5712104187768708e-15 0.11454753722800141
0003a0 f0 5c a0 66 06 59 21 bd 50 c9 57 7f 70 32 18 3d
       -3.081580132357255e-14 2.1491279044919982e-14
0003b0 52 fd 9c 12 fa e5 03 bd 58 4d 3b c6 fc 52 bd 3f
       -8.836641221732757e-15 0.11454753722801081
0003c0 20 d1 66 67 10 cb de bc 50 18 55 f4 c5 e3 c9 3c
       -1.709367039795092e-15 7.185846166655006e-16
0003d0 95 ea 77 01 a2 4d 10 3d f1 07 da 5f 19 be 00 bd
       1.448019771763939e-14 -7.435196761798987e-15
0003e0 71 66 d0 b8 df c2 0c bd 73 55 3b c6 fc 52 bd 3f
       -1.2772550228906674e-14 0.1145475372280396
0003f0 96 2e 3b c6 fc 52 bd 3f f7 99 1d c6 b6 67 21 bd
       0.11454753722790154 -3.091772643809982e-14
000400 ba eb c6 91 5c a8 1d bd c8 ea 01 0d 6e 71 b5 3f
       -2.634129580910214e-14 0.08376205270352977
000410 7c 72 c5 5c 9f a9 fd bc d6 4d 3b c6 fc 52 bd 3f
       -6.586417617318045e-15 0.11454753722801256
000420 4c a1 9b b0 cf 9d 11 bd 33 c9 55 3e 99 a9 22 3d
       -1.5646551029026116e-14 3.315124985226016e-14
000430 44 87 97 9c 49 b0 21 bd b6 8d 73 a1 eb d3 d8 bc
       -3.142130684566986e-14 -1.3782205481694901e-15
000440 2c dc b4 88 49 2d 2a bd 09 52 a8 9b 78 54 20 bd
       -4.649952119340919e-14 -2.900784560572873e-14
000450 5e fc 38 76 51 5e 18 bd bf 5d 25 1c 65 fa 1a bd
       -2.1643514099638662e-14 -2.3961370945469228e-14
000460 ad b2 ff 91 e9 46 12 bd 75 55 3b c6 fc 52 bd 3f
       -1.6233238309179553e-14 0.11454753722803963
000470 68 89 ba d8 40 e3 e8 3c c3 48 3b c6 fc 52 bd 3f
       2.7630906707692683e-15 0.11454753722799453
000480 bc 0a 86 2f 17 be 13 bd c3 c5 0a 2b 60 10 11 bd
       -1.753489911917666e-14 -1.5155847607369117e-14
000490 fa bf 87 e8 2c 14 14 bd a7 55 3b c6 fc 52 bd 3f
       -1.7833565954286602e-14 0.11454753722804033
0004a0 64 c7 69 de 77 2a e1 bc 1a c9 81 1d f2 f2 03 bd
       -1.9057968040090567e-15 -8.859138705166581e-15
0004b0 bc 7b 72 ea 13 cc 1f bd 52 4e ee 2d da 73 2f 3d
       -2.8241568098449838e-14 5.5870948585318496e-14
0004c0 c1 47 3b c6 fc 52 bd 3f d5 53 3b c6 fc 52 bd 3f
       0.11454753722799095 0.11454753722803386
0004d0 b0 3e 62 ca 39 e7 19 bd 94 8a 55 d4 f4 ce 11 bd
       -2.3006685946559834e-14 -1.5817057264506736e-14
0004e0 22 49 3b c6 fc 52 bd 3f fe fc 05 2c c7 57 0f 3d
       0.11454753722799585 1.3919036089503425e-14
0004f0 68 64 a7 21 60 8e 23 bd 39 3b 77 b3 69 22 21 bd
       -3.4738708531416254e-14 -3.0436853694915e-14
000500 09 d7 85 48 03 36 21 bd 00 ad 47 f2 57 86 b5 3c
       -3.057285553442963e-14 2.9871632189566443e-16
000510 b6 43 ba a4 0e 3d 04 bd 0f b0 9d 64 ff 90 18 3d
       -8.987701557029082e-15 2.1819343654874102e-14
000520 d4 29 53 c8 25 76 45 3d f8 3c 3b c6 fc 52 bd 3f
       1.5249322882118046e-13 0.11454753722795263
000530 1c 3b 3e 6f 9f f9 35 bd 86 37 e4 f7 5c b4 0e bd
       -7.807119938286806e-14 -1.3635556499059518e-14
000540 04 47 3b c6 fc 52 bd 3f 20 69 53 4f 09 f3 f4 bc
       0.11454753722798833 -4.651692543886433e-15
000550 79 f7 a9 3f 28 7a 0c 3d 8f 81 48 93 32 ba 40 3d
       1.2646406875584304e-14 1.1885485817385832e-13
000560 e2 4b 3b c6 fc 52 bd 3f 54 3b 95 3c 97 54 07 3d
       0.11454753722800562 1.0360793417950753e-14
000570 f6 55 3b c6 fc 52 bd 3f ed 78 60 d0 6a 81 08 bd
       0.11454753722804142 -1.0882644164430949e-14
000580 9a c1 d4 e9 bb 07 af 3f 7a 8e 65 c4 b5 1f 08 bd
       0.06060588101752558 -1.0713149166441911e-14
000590 c0 c4 18 45 50 25 25 bd 94 b6 3f 76 3e 0e 0c bd
       -3.7562408422098e-14 -1.245920726282905e-14
0005a0 64 4f 3b c6 fc 52 bd 3f 2d 58 e3 09 ca a7 aa 3f
       0.11454753722801808 0.05206138010696324
0005b0 e3 57 3b c6 fc 52 bd 3f b9 9b 3b 46 8c 31 17 bd
       0.11454753722804827 -2.0600007625646307e-14
0005c0 50 29 bc 35 5a bc 1e bd 2e 36 3b c6 fc 52 bd 3f
       -2.729883119012258e-14 0.11454753722792851
0005d0 8f 4f 3b c6 fc 52 bd 3f 65 c9 ca 10 a7 74 23 3d
       0.11454753722801868 3.456021996346463e-14
0005e0 68 d1 0f 2c 4e 04 36 3d 17 79 b1 82 5e 08 03 3d
       7.821944980376173e-14 8.452213203156966e-15
0005f0 05 b5 99 58 5c a1 11 bd e0 46 91 a2 d5 89 ff 3c
       -1.5658865617132114e-14 7.002935134414228e-15
000600 f2 44 3b c6 fc 52 bd 3f 66 55 3b c6 fc 52 bd 3f
       0.11454753722798097 0.11454753722803943
000610 61 bb 83 ef fa dc 10 bd f3 45 3b c6 fc 52 bd 3f
       -1.4977533856216994e-14 0.11454753722798454
000620 8c 34 a0 e1 ef 8c 1d bd 91 4d 3b c6 fc 52 bd 3f
       -2.624614774309793e-14 0.1145475372280116
000630 4a 54 3b c6 fc 52 bd 3f f0 b6 99 6e 84 c0 d9 3c
       0.11454753722803548 1.4295243185001108e-15
000640 e8 08 8e 85 ab a1 de 3c 08 06 ba 82 d0 31 1b bd
       1.700391131421591e-15 -2.4153646078809038e-14
000650 a4 31 39 bd 28 74 f8 3c 79 4e 3b c6 fc 52 bd 3f
       5.429822509429995e-15 0.11454753722801482
000660 91 46 2b 27 bd a7 13 bd 68 ae b8 73 a4 c4 09 bd
       -1.7457351116503134e-14 -1.1443350417890068e-14
000670 4d 55 3b c6 fc 52 bd 3f 78 7a 45 ba f0 8c e5 3c
       0.11454753722803908 2.392591481827425e-15
000680 40 db ae 5e 4e db da 3c ab 3b 3b c6 fc 52 bd 3f
       1.4908443690173313e-15 0.11454753722794801
000690 26 5f 3b c6 fc 52 bd 3f 4a b8 01 f0 28 90 18 bd
       0.11454753722807406 -2.181643724082044e-14
0006a0 89 51 3b c6 fc 52 bd 3f 11 8a 58 b6 e1 ea 14 3d
       0.1145475372280257 1.8578477952679043e-14
0006b0 61 68 c5 96 a6 77 22 bd 67 46 3b c6 fc 52 bd 3f
       -3.280466688629897e-14 0.11454753722798615
0006c0 ec 70 d8 17 a7 e7 e0 bc 48 43 ff 04 91 45 0e 3d
       -1.876820186938398e-15 1.3443354905835768e-14
0006d0 30 70 9c 39 96 f7 f1 bc 84 71 9a 07 3e fb 0c bd
       -3.989505615253406e-15 -1.2870333797871303e-14
0006e0 98 ea b5 af 34 64 dd 3c ca f9 a3 32 87 65 28 bd
       1.6315520562470872e-15 -4.3337056974007476e-14
0006f0 1b 6e 69 4a 4f 91 17 bd fe f4 d7 bb ed ea f7 bc
       -2.09322480501113e-14 -5.310794033288112e-15
000700 cb 5d 27 95 ea 24 25 bd ac bb bf 4d be 75 02 3d
       -3.7559652182925155e-14 8.197857972068007e-15
000710 00 b3 f4 a3 ea 2d a9 bc a8 fc 1a be dd 17 1e bd
       -1.7471691856598692e-16 -2.6728155043497198e-14
000720 52 87 a4 1c 90 b9 f1 3c 3f 67 0d f6 51 55 1e bd
       3.935708475313849e-15 -2.6941366362522758e-14
000730 56 54 3b c6 fc 52 bd 3f 56 93 e2 c4 fd e5 06 3d
       0.11454753722803565 1.0168933898889472e-14
000740 bd 0b 73 7b d6 2c f6 3c 8b 53 3b c6 fc 52 bd 3f
       4.923871918864205e-15 0.11454753722803283
000750 61 68 9e d0 3d 80 22 bd de 93 e6 4d a7 6c 2d bd
       -3.2864277025590204e-14 -5.226828367635615e-14
000760 fe 79 5f 37 9e a7 05 3d 4c 44 3b c6 fc 52 bd 3f
       9.616644342694691e-15 0.11454753722797867
000770 d3 4b e4 3f 64 3e 7f 3f b6 52 d2 3f 23 f2 16 bd
       0.007627860641394829 -2.0380009112912017e-14
000780 ee 34 13 5d a5 e2 1d bd 20 44 3b c6 fc 52 bd 3f
       -2.654351027677677e-14 0.11454753722797806
000790 ad 4c 77 45 61 c6 4a 3d 87 ff ac 6a 20 33 32 3d
       1.9024726145059485e-13 6.465837070955735e-14
0007a0 6c 52 3b c6 fc 52 bd 3f 58 4e 3b c6 fc 52 bd 3f
       0.11454753722802885 0.11454753722801436
0007b0 d2 3e 3b c6 fc 52 bd 3f 72 43 3b c6 fc 52 bd 3f
       0.11454753722795921 0.11454753722797564
0007c0 cf 4b 3b c6 fc 52 bd 3f 78 8c 8c f9 83 4d 1e bd
       0.11454753722800536 -2.6914288598376663e-14
0007d0 90 fc 13 56 a2 32 d7 bc d6 33 e6 30 83 c6 56 3d
       -1.2877360041896914e-15 3.2365845919440985e-13
0007e0 95 53 46 f8 69 aa 14 3d 03 28 4b 69 5c 05 12 bd
       1.8354810534739866e-14 -1.6005811196056055e-14
0007f0 f1 e8 38 a3 d3 ac 16 3d ac 7f 55 33 1a 22 1d bd
       2.0139538333285555e-14 -2.5875490450974352e-14
