Modules/SVM/kernelAlphas_0.572737686139748_100.npy (npy, 7104 bytes, 1 tensors)

array f8 [872]
00000000: a602 55c5 7cba f83c 28fb c1f6 3fb8 e8bc
00000010: 55cf 7592 4f95 22bd 16dd 3ae3 9cc6 00bd
00000020: 5349 7904 437e 0b3d d330 ce87 ff21 29bd
00000030: a3c7 e2e3 f2f3 15bd 34a0 d751 db28 063d
00000040: 99dc 5490 38ca 0c3d e408 a22b 570a 1b3d
00000050: 08ca b561 c79c f23c 854f b7f4 1fe9 4e3d
00000060: f6bb b318 ab18 1b3d ccae b9a5 8b3a 283d
00000070: 45cd c6f6 a210 f73c 4536 c493 59f7 e03c
00000080: e9ee 41ec 4982 123d dc01 e5fb dd53 e23f
00000090: 2290 4a76 3f32 1f3d 5675 9bc3 57de 1a3d
000000a0: 2809 5b6e 5c79 f2bc 7af8 df5d c230 fd3c
000000b0: 5d0f 160b d773 ecbc e605 6c44 5fd6 e03c
000000c0: 1504 1c46 2a19 263d 9001 56f5 926b f43c
000000d0: c3a2 2e45 c01f f73c 54a5 24e3 b747 f93c
000000e0: 6e82 d906 2519 213d cf8d ae97 5ae5 113d
000000f0: 0d58 4869 aa6c 0f3d 789c 9ee3 50bb f03c
00000100: 8207 ee32 ff5a 143d 2e91 13a6 7165 d63f
00000110: ee81 998a f9cb f33c 2b9f 3788 f315 08bd
00000120: 3779 adae bf2e 123d 111e 70da 0b1f 103d
00000130: 24d1 e971 6546 e4bc 62a4 fff7 f18f 153d
00000140: 228e fd01 6ab5 073d 96da 485b 6d27 193d
00000150: 3212 f973 b2a9 1cbd d208 bf49 55e7 0a3d
00000160: 5789 89b6 2a4f 253d ddfe e4fb dd53 e23f
00000170: 2615 e12f a099 0b3d 2e0a 75b4 08e0 d3bc
00000180: f901 e5fb dd53 e23f 2826 f703 4e47 113d
00000190: e104 e5fb dd53 e23f 0efb ba68 0fed eebc
000001a0: 1c2a 7b0a 6de1 0dbd 7fb1 5d4e e3e0 223d
000001b0: 1156 4d5a fc73 1c3d 15c3 d235 da3f e6bc
000001c0: e776 5d08 765a 093d b9da 61a6 c18c bc3f
000001d0: 41ca 5928 1557 f7bc 5a04 e5fb dd53 e23f
000001e0: 074e 9986 5c08 10bd a6f3 a8ba 1651 043d
000001f0: a121 6c24 092b fe3c d294 115c 4b8a d8bc
00000200: 353c 2c72 b06b d43f f084 31cd 7ca5 203d
00000210: 52bb b80c 7974 1a3d ac16 cc50 fb9a 113d
00000220: 0ad0 a102 177f 123d 83c3 c7e4 562e eebc
00000230: ac6e d638 a1cd 03bd 0166 c675 67b1 243d
00000240: 7303 e5fb dd53 e23f 0903 e5fb dd53 e23f
00000250: 863a 0a69 0044 033d 3e81 cb35 8007 053d
00000260: 90ff e4fb dd53 e23f acc2 6f81 5439 193d
00000270: 06d6 0413 0cfd 01bd 5620 591a c1d8 24bd
00000280: 5504 e5fb dd53 e23f 48bc c596 6234 123d
00000290: 4203 e5fb dd53 e23f 0fed 37b4 09b3 fd3c
000002a0: 9e9f 7c6d 3379 0e3d 90cd b487 37c3 e33c
000002b0: 4f87 9fab 746f f03c 1ffe e4fb dd53 e23f
000002c0: 886c 27bc 64b9 1b3d a2be d6c4 0663 2abd
000002d0: b301 e5fb dd53 e23f 0a51 0c11 e563 133d
000002e0: 55e8 115e 2d69 1cbd 1aaf f277 e8dc 153d
000002f0: 76e2 9e17 96b3 193d 87df 9afa c6e1 013d
00000300: 8654 f743 87d1 0d3d 55c7 6f76 cc12 123d
00000310: fa53 3a7e 0309 0c3d 57b6 abe7 aafc efbc
00000320: 610e a828 01f1 133d 444b 48f5 b528 fe3c
00000330: 6e43 fe8d 59a2 253d dae9 3240 c940 fd3c
00000340: 1e90 06b1 e854 1e3d 7e06 fe26 c788 223d
00000350: 24de 17d1 567c 193d 2a57 12ce 9eaf 0c3d
00000360: 814b 548f 4b70 113d ee91 e4fb 09d4 1a3d
00000370: b529 273a 3407 0a3d 26fb e8f7 682e 123d
00000380: c405 e5fb dd53 e23f 0258 fe50 9c57 203d
00000390: 0865 5078 a546 e0bc af03 e5fb dd53 e23f
000003a0: e011 e5eb 8325 f93c 785e 97a1 7672 c03c
000003b0: 8642 5d2b a62f ef3c fdc6 d48a 9405 de3f
000003c0: 7fba 4fc1 2b15 1a3d f23c bbd0 e862 f03c
000003d0: 7cfb 6130 eb2a f43c 12ac e72b c492 243d
000003e0: 3e19 9f3f cbf4 163d a504 e5fb dd53 e23f
000003f0: 46f3 e4fb dd53 e23f 8274 17aa 1d73 063d
00000400: d9f9 1b1b f79e 0c3d ce36 2173 bc8c e93c
00000410: b545 477d b7fb 1a3d a800 e5fb dd53 e23f
00000420: 9206 42cc 85dd de3c f641 7f15 0919 15bd
00000430: 8a57 fdfd e29b 17bd e72f 1a82 46fa 193d
00000440: d639 c77b 138e 143d 5c7c 8d70 6d40 edbc
00000450: 133c b0e0 86b2 113d 186d 00e4 20c4 063d
00000460: eaf9 df61 b0b3 0a3d b481 1625 1f40 e03f
00000470: 1c41 6fd8 f772 d73c 36a1 dba9 d03e 0fbd
00000480: fc36 600b 8289 053d 88bc 68e6 1196 113d
00000490: 223b 9b07 b6be ef3c e3fe e4fb dd53 e23f
000004a0: 3c86 d95a a6a1 023d e6d5 6392 dd47 293d
000004b0: 5ce0 c63f adce f73c ef07 44f7 257f 1a3d
000004c0: d3eb e4fb dd53 e23f cefa 48f9 7fbf 32bd
000004d0: acef 7df6 2c7e f53c 925a 96e6 8bb3 fd3c
000004e0: 29f7 beb5 5c09 d23f 844c a64c e593 0c3d
000004f0: 62ad 6a5a 3229 2d3d 026d 9736 47c4 1f3d
00000500: 2a25 bc02 708e 213d 320c 68e8 e73b 1a3d
00000510: 3691 df95 ec83 11bd fcd9 6c70 e302 22bd
00000520: 5691 8043 eaf6 1b3d fa0a 7f20 441c 083d
00000530: d749 62e9 f43c 1b3d 556e 3cb5 ca48 043d
00000540: 7c08 27ca c07b 193d 8477 2c08 b749 ee3c
00000550: bcdc 30e0 386e 1e3d 7274 a2b1 81f5 f33c
00000560: 9c37 8889 9342 0cbd b8cd 02d7 4a4c ff3c
00000570: c201 e5fb dd53 e23f 28b9 4cad 9dbc 183d
00000580: fb02 8255 3234 223d 9627 1743 c081 193d
00000590: 6e83 3ee9 6c2b 2d3d 54e1 0ac9 16de bc3c
000005a0: 3a09 812b dc77 133d f773 1a12 be47 143d
000005b0: 5302 e5fb dd53 e23f 7c6f c682 6bac 253d
000005c0: 2225 739a 33ef 0d3d ae1a 2c00 cbfa f43c
000005d0: 2202 e5fb dd53 e23f 8df7 3d32 ec6f 14bd
000005e0: b020 9a7f bdc1 143d 0741 5f80 1531 033d
000005f0: 4bda 1e30 c394 163d aa73 1ab8 2c35 103d
00000600: 6de6 5e65 cc8c 113d 0b03 e5fb dd53 e23f
00000610: df77 cb4c dc52 213d c95f 9cf0 9f19 223d
00000620: e856 4187 a390 183d 5003 e5fb dd53 e23f
00000630: 4600 e5fb dd53 e23f a99c 284a 2af0 103d
00000640: 2e90 71ad 4b1f 02bd f665 6b34 17da 10bd
00000650: 4fd3 7675 ebab d03c 1701 e5fb dd53 e23f
00000660: 2455 317b 9fb5 153d 5de0 11d7 63b1 1fbd
00000670: c902 e5fb dd53 e23f 8e2b 47c1 23b5 083d
00000680: fa21 d97d 4cd3 0e3d ebe6 c5c8 b170 ff3c
00000690: b302 e5fb dd53 e23f 8cab 53df d729 1a3d
000006a0: 13f8 e4fb dd53 e23f 6a6c 9d2f a923 e93c
000006b0: 705c 6697 061f eabc 5803 e5fb dd53 e23f
000006c0: d269 747a 05f9 123d 3785 bcf1 10f6 f13c
000006d0: 3874 3047 398b 223d a74d 828d e7e8 223d
000006e0: c84f f6e4 8a41 073d f1eb 5bea e758 173d
000006f0: 61ea a75a b535 103d d80d ef0e eb0f 123d
00000700: ecad 8763 590c 0b3d 7e72 80b2 227f 213d
00000710: 2b49 9056 7b45 173d 6c62 1886 171d f23c
00000720: c03d db4b e3d3 ac3c 8499 17f9 8891 f73c
00000730: aae7 a24b a4de dcbc b5c5 8368 0198 163d
00000740: 2689 26ed 9d68 203d 7115 0965 e30f 103d
00000750: 3a4a 58b2 87fc d0bc 4e68 384d ae19 15bd
00000760: a94b ffd7 ffdb 183d 15e8 a6fa e2c4 17bd
00000770: f527 105d 8fa7 f03c a3c6 e40b d423 0bbd
00000780: f352 b234 235a 273d d602 e5fb dd53 e23f
00000790: ae39 177e ea4d e43c 0878 dffc 2cc8 053d
000007a0: 34ec e4fb dd53 e23f 304f b835 7a72 603d
000007b0: 92ac c530 00de 10bd 10bc 7eb8 5839 663d
000007c0: d86d 86a7 27ca 073d 4be8 ef10 8ad8 07bd
000007d0: c1aa 28d6 4910 e93c 0ce4 186c aff3 1c3d
000007e0: 7285 2796 a897 ff3c 0630 16d7 ecf7 1f3d
000007f0: 92e9 2b86 a3dc f13c 5040 ed16 e11f 04bd
5.490822541476655e-15 -2.7444408980524017e-15 -3.301047510725366e-14 -7.449965717688908e-15 1.2209437952004337e-14 -4.464483065164426e-14 -1.9498114198776036e-14 9.840837723811372e-15
1.2785295309132196e-14 2.4016693181194538e-14 4.13278685118536e-15 2.1963333451448785e-13 2.4066402848611543e-14 4.303880514143316e-14 5.12145584449406e-15 1.883627763742791e-15
1.6439241500209264e-14 0.5727376861396425 2.7707863429799652e-14 2.3864045560761613e-14 -4.102066827616067e-15 6.481585446240181e-15 -3.1588620664142227e-15 1.8693259344035713e-15
3.925446864980971e-14 4.5341977187009944e-15 5.134565564075262e-15 5.6133208408548784e-15 3.0372542229646015e-14 1.58947642443139e-14 1.395527039237275e-14 3.715184386867446e-15
1.80792772103044e-14 0.3499416467514206 4.395767405553652e-15 -1.0696220467087658e-14 1.614940389443571e-14 1.4318568212520533e-14 -2.250975564550553e-15 1.9151157015813284e-14
1.0528755112329287e-14 2.2341250981655044e-14 -2.5457750775873447e-14 1.1947618513502814e-14 3.785282398497835e-14 0.5727376861395573 1.2256906827301265e-14 -1.1032915040675719e-15
0.5727376861396457 1.5346421175536912e-14 0.5727376861397283 -3.43347754386312e-15 -1.3269638757909309e-14 3.353489648833048e-14 2.527140216847458e-14 -2.4701822114596327e-15
1.1259155179613922e-14 0.11152277290407654 -5.1825580692859096e-15 0.5727376861397133 -1.4239864248919613e-14 9.022450817202298e-15 6.698665677716835e-15 -1.3622554416115306e-15
0.31907282972037204 2.9570009676983376e-14 2.3496735287892094e-14 1.563673392718842e-14 1.6428143164966143e-14 -3.350765597457339e-15 -8.794405782641938e-15 3.675812529950327e-14
0.5727376861396877 0.5727376861396759 8.555658963902084e-15 9.338885256861368e-15 0.5727376861395772 2.240336423336025e-14 -7.988483425461979e-15 -3.703117193645007e-14
0.5727376861397128 1.6168958925589755e-14 0.5727376861396822 6.5945841722834044e-15 1.3532926323629297e-14 2.1940855878945738e-15 3.649386126418328e-15 0.5727376861395362
2.462403023152022e-14 -4.687241179234272e-14 0.5727376861396379 1.7221969653784038e-14 -2.5233902525302418e-14 1.941817567942605e-14 2.2827525626442668e-14 7.941177683192706e-15
1.3242060886762577e-14 1.6052432585260524e-14 1.2450134057099486e-14 -3.5512684795950206e-15 1.7711542394585926e-14 6.696649115409801e-15 3.843002182378858e-14 6.495486558211871e-15
2.6939939692927235e-14 3.292351071441293e-14 2.2635848501184407e-14 1.2739150588413984e-14 1.548863522084639e-14 2.3828296973858363e-14 1.1558816425436091e-14 1.6148228701466826e-14
0.5727376861397535 2.9029630164040224e-14 -1.8069948172739796e-15 0.5727376861396943 5.5836544747374504e-15 4.56499356890642e-16 3.4623558790800427e-15 0.46909059102755163
2.3166090290684387e-14 3.638503938235476e-15 4.478118142806838e-15 3.654553253724009e-14 2.038922482078517e-14 0.5727376861397216 0.5727376861392279 9.969656830370207e-15
1.271025863968656e-14 2.8365921294749746e-15 2.396595684179684e-14 0.5727376861396083 1.7133696041763205e-15 -1.8738606098292885e-14 -2.0968944247891328e-14 2.3072777794950525e-14
1.825649391196062e-14 -3.247587745022235e-15 1.571842262589452e-14 1.011019129358114e-14 1.1858030171418431e-14 0.5078273510335323 1.3016862211115491e-15 -1.3875732319788669e-14
9.564411738441233e-15 1.561969276841443e-14 3.5243991117744255e-15 0.572737686139558 8.274023521459002e-15 4.4907588168828957e-14 5.286289422180558e-15 2.3533773208745742e-14
0.5727376861390162 -6.660644116166523e-14 4.772376622504554e-15 6.5950252960422685e-15 0.2818214201796417 1.2691056020027866e-14 5.180020781862441e-14 2.8214507732765192e-14
3.11864252598153e-14 2.3300479219635854e-14 -1.5556737016243826e-14 -3.1994465647822365e-14 2.4837476146976138e-14 1.0707174939821033e-14 2.4192303320889546e-14 9.00805788979287e-15
2.2633815254670214e-14 3.362637845459742e-15 2.702776256580513e-14 4.431790539357751e-15 -1.254998937640653e-14 6.949555812161726e-15 0.5727376861396396 2.197067502094353e-14
3.233660989841991e-14 2.2654624786257845e-14 5.181567282203051e-14 4.006175277130627e-16 1.7291238020644268e-14 1.801247506613328e-14 0.5727376861396557 3.849989746604509e-14
1.329353567410453e-14 4.658420326031032e-15 0.5727376861396503 -1.8151878061870622e-14 1.8435739838558926e-14 8.522842136990015e-15 2.0056048672566355e-14 1.4395341461199412e-14
1.5587525790235833e-14 0.5727376861396761 3.0773026812838814e-14 3.2152230636101074e-14 2.1818098656163145e-14 0.5727376861396838 0.5727376861395974 1.5044095115737162e-14
-8.047895015838792e-15 -1.4967508633919005e-14 9.254575753980435e-16 0.5727376861396206 1.928187808559157e-14 -2.8148976207090108e-14 0.5727376861396688 1.0972368270804819e-14
1.3689221276138363e-14 6.981129623866583e-15 0.5727376861396664 2.3237811853396184e-14 0.5727376861393644 2.7910230042030726e-15 -2.9000351372397463e-15 0.5727376861396847
1.6851178090974426e-14 3.9881866807340205e-15 3.294048188740091e-14 3.359052274530498e-14 1.0327750037441478e-14 2.0736558025513655e-14 1.4397193210355242e-14 1.6042438893352288e-14
1.2011831069658957e-14 3.1080246267054696e-14 2.0669167036267574e-14 4.022036080819255e-15 2.0003226170261802e-16 5.23325744791498e-15 -1.602589974596606e-15 2.006730025559089e-14
2.9147634999226434e-14 1.4265978191919692e-14 -9.42937148734991e-16 -1.874084521523747e-14 2.2079558284504755e-14 -2.111119139622833e-14 3.698048823570395e-15 -1.2052560870311874e-14
4.148166201392558e-14 0.5727376861396702 2.2542367219805993e-15 9.67312295113471e-15 0.572737686139027 4.674568934383574e-13 -1.4981074520512594e-14 6.31644355172507e-13
1.0564734677331133e-14 -1.0589687670058516e-14 2.782621539461524e-15 2.571444877580024e-14 7.014925568529446e-15 2.8393694190838772e-14 3.966131907310041e-15 -8.937085890927944e-15
