Modules/SVM/kernelAlphas_0.1145475372279496_5.npy (npy, 7104 bytes, 1 tensors)

array f8 [872]
000000 68 0e 5b 46 32 b7 e4 bc a7 49 b8 05 ed 3d fc bc
       -2.29989481714587e-15 -6.270961066854066e-15
000010 fd 3c 3b c6 fc 52 bd 3f 96 ba b2 bf c8 6f f3 3c
       0.1145475372279527 4.315804809954128e-15
000020 cb 49 69 9b 36 98 ad 3f 01 3f 3b c6 fc 52 bd 3f
       0.05780192038641337 0.11454753722795986
000030 54 72 2c 94 88 03 e0 bc 08 3e 3b c6 fc 52 bd 3f
       -1.777889255499649e-15 0.11454753722795641
000040 c4 06 1d 3a ec 57 e5 bc 60 68 27 85 84 d3 f3 bc
       -2.369598771428548e-15 -4.402309815964973e-15
000050 4b 3e 3b c6 fc 52 bd 3f bb 3e 3b c6 fc 52 bd 3f
       0.11454753722795734 0.11454753722795889
000060 c6 3d 3b c6 fc 52 bd 3f 70 3b 69 21 67 e0 d3 3c
       0.11454753722795549 1.1033714856627514e-15
000070 3d 40 3b c6 fc 52 bd 3f 90 b1 91 d5 f2 1b 07 bd
       0.11454753722796425 -1.0262534869316119e-14
000080 03 3d 3b c6 fc 52 bd 3f 75 3c 3b c6 fc 52 bd 3f
       0.11454753722795279 0.11454753722795082
000090 ff 3e 3b c6 fc 52 bd 3f 14 c0 0c 5b 75 e4 fe bc
       0.11454753722795984 -6.8594942404657575e-15
0000a0 68 25 b1 a4 6c b8 de bc d8 3b 3b c6 fc 52 bd 3f
       -1.7053252013635466e-15 0.11454753722794864
0000b0 54 40 3b c6 fc 52 bd 3f 17 ec 76 f6 ee d1 e7 bc
       0.11454753722796457 -2.6445570769060543e-15
0000c0 00 6e ec 22 09 60 e3 bc 18 66 d7 ce 7c d4 c5 bc
       -2.151072587908982e-15 -6.059050322180242e-16
0000d0 42 3d 3b c6 fc 52 bd 3f e2 3d 3b c6 fc 52 bd 3f
       0.11454753722795366 0.11454753722795588
0000e0 44 73 48 ff 22 70 f4 bc 3b 3c 3b c6 fc 52 bd 3f
       -4.538155188278644e-15 0.11454753722795001
0000f0 dc 9a 14 63 50 81 90 3f b5 47 78 99 2a 1e e4 bc
       0.01611829380740458 -2.233528641665946e-15
000100 f3 56 32 0e 97 8b db bc 96 3e 3b c6 fc 52 bd 3f
       -1.5290698525868327e-15 0.11454753722795838
000110 97 7c 63 26 42 2e e2 bc c7 3c 3b c6 fc 52 bd 3f
       -2.0184628266826292e-15 0.11454753722795195
000120 3e 3b ae 95 ce ad f7 bc 80 53 c9 dd 91 1b b1 3c
       -5.257779430102385e-15 2.374169540674745e-16
000130 02 4b 46 79 22 ff f8 bc 3d bc 74 0d 2f d9 e3 bc
       -5.55036456292435e-15 -2.2036122055009018e-15
000140 89 3d 3b c6 fc 52 bd 3f dc 82 bc b8 05 2d f2 3c
       0.11454753722795465 4.035853552484509e-15
000150 3e 01 9c cf 5c d4 00 bd 9b 3c 3b c6 fc 52 bd 3f
       -7.473817646132165e-15 0.11454753722795134
000160 a3 00 af 4c 7e 72 b1 3f 07 3d 3b c6 fc 52 bd 3f
       0.06815327999265945 0.11454753722795284
000170 66 3d 3b c6 fc 52 bd 3f 3d 3c 3b c6 fc 52 bd 3f
       0.11454753722795416 0.11454753722795004
000180 88 3d 3b c6 fc 52 bd 3f ab 3d 3b c6 fc 52 bd 3f
       0.11454753722795463 0.11454753722795512
000190 ba 3d 3b c6 fc 52 bd 3f 26 88 8f b3 95 ff d1 bc
       0.11454753722795533 -9.991106837537087e-16
0001a0 93 3a 3b c6 fc 52 bd 3f cb 3e 3b c6 fc 52 bd 3f
       0.11454753722794413 0.11454753722795911
0001b0 13 3d 3b c6 fc 52 bd 3f 74 3e 3b c6 fc 52 bd 3f
       0.11454753722795301 0.11454753722795791
0001c0 00 83 0a 82 52 1e fd bc 56 3e 3b c6 fc 52 bd 3f
       -6.465593942851377e-15 0.11454753722795749
0001d0 3c 46 2c ad be c0 b2 3f b7 3e 3b c6 fc 52 bd 3f
       0.07325355270247597 0.11454753722795884
0001e0 18 04 e3 5f c3 bc e3 3c 88 cf 61 78 72 ed e4 bc
       2.191286727533628e-15 -2.3234223353356475e-15
0001f0 4c 04 e7 a2 69 da e4 bc a8 58 84 16 cc c3 e6 bc
       -2.3151674336076903e-15 -2.5274041620765533e-15
000200 ff 3c 3b c6 fc 52 bd 3f 03 38 5d cd 92 b1 b5 3f
       0.11454753722795273 0.08474080575726366
000210 93 24 bb d5 f7 b0 04 bd c6 3c 3b c6 fc 52 bd 3f
       -9.188774923290119e-15 0.11454753722795194
000220 e8 fa c1 c7 19 a2 eb bc 0a 3d 3b c6 fc 52 bd 3f
       -3.0679021407981494e-15 0.11454753722795288
000230 24 5d 52 da 1e 2a a7 3f 86 61 47 17 da 9a d8 bc
       0.04524322905597902 -1.3658457866684363e-15
000240 e0 3d 3b c6 fc 52 bd 3f 23 3f 3b c6 fc 52 bd 3f
       0.11454753722795585 0.11454753722796034
000250 c4 3e 3b c6 fc 52 bd 3f 04 9a 81 f9 ff a7 c9 3c
       0.11454753722795902 7.121039761454816e-16
000260 5c 3e 3b c6 fc 52 bd 3f 76 de 73 81 e7 5f b5 3f
       0.11454753722795757 0.08349463377441588
000270 c1 02 6c 3d 1c f6 ad 3f f1 3d 3b c6 fc 52 bd 3f
       0.05851829767016659 0.11454753722795609
000280 23 3d 3b c6 fc 52 bd 3f fc f0 c7 9d d2 dc dc bc
       0.11454753722795323 -1.6021955290371108e-15
000290 c4 44 3b c6 fc 52 bd 3f 18 66 64 03 e4 50 f0 bc
       0.11454753722798033 -3.622875156782635e-15
0002a0 ae 30 a2 d3 63 ee dc bc 24 3e 3b c6 fc 52 bd 3f
       -1.606004814384003e-15 0.1145475372279568
0002b0 4c 3d 3b c6 fc 52 bd 3f 50 a8 96 03 4b eb ef bc
       0.1145475372279538 -3.54373345924045e-15
0002c0 a4 bd 0b 04 dc 41 f0 bc 2a 3d 3b c6 fc 52 bd 3f
       -3.6098376343098744e-15 0.11454753722795333
0002d0 84 3c 3b c6 fc 52 bd 3f dc 06 c6 31 56 c9 d2 bc
       0.11454753722795102 -1.0428586590168584e-15
0002e0 af 3e 3b c6 fc 52 bd 3f 38 64 a7 ab 16 16 f4 bc
       0.11454753722795873 -4.460050867455822e-15
0002f0 ae 98 ff ca c9 8f f6 bc 30 9f 8e bf fe fa b8 3f
       -5.009697738034387e-15 0.09757988144576468
000300 00 3d 3b c6 fc 52 bd 3f 74 ed 7a 22 cd 37 f0 bc
       0.11454753722795274 -3.60111359774807e-15
000310 c2 32 9d e8 8f 03 e4 bc 09 84 1c de a5 6d f0 bc
       -2.2219908825909074e-15 -3.647818089606191e-15
000320 7a 4e 04 56 39 fc f3 bc 95 ed 5e 15 f7 41 eb 3c
       -4.437616913483813e-15 3.026209998668665e-15
000330 18 3d 3b c6 fc 52 bd 3f 80 94 c4 d8 6b eb ca bc
       0.11454753722795308 -7.471693919348328e-16
000340 58 43 d2 aa 0c 50 db bc 6c 76 3a 21 fe f5 f7 bc
       -1.5161590475994994e-15 -5.3203905643310976e-15
000350 16 10 83 41 16 d6 e4 bc 03 16 f8 66 be 49 de bc
       -2.313291458186565e-15 -1.6813251656121276e-15
000360 a4 0a 31 9a b9 20 f4 bc 68 3d 3b c6 fc 52 bd 3f
       -4.469276519205642e-15 0.11454753722795419
000370 52 2a f8 62 33 7f c6 3c c3 f4 6f f4 25 29 e1 3c
       6.244137942056878e-16 1.9052243554801783e-15
000380 82 3f 3b c6 fc 52 bd 3f 5d 3d 3b c6 fc 52 bd 3f
       0.11454753722796165 0.11454753722795404
000390 62 2d 27 0c 61 96 d7 3c 93 3c 3b c6 fc 52 bd 3f
       1.3093647459004027e-15 0.11454753722795123
0003a0 20 7a 7c 95 78 e9 cb bc 09 3d 3b c6 fc 52 bd 3f
       -7.747135215219648e-16 0.11454753722795287
0003b0 66 36 39 9b f2 4d e1 bc c2 3c 3b c6 fc 52 bd 3f
       -1.9211835599046586e-15 0.11454753722795188
0003c0 c8 b7 ad 27 7d 59 d8 bc bc ef 4c 7e 05 c2 ec bc
       -1.3516724386242633e-15 -3.1927678636516044e-15
0003d0 0e 72 23 bb f2 87 f0 bc 54 97 bb f6 ec a5 df bc
       -3.670629918078761e-15 -1.7568250760068475e-15
0003e0 43 78 5b a7 f8 06 da bc 8e 3d 3b c6 fc 52 bd 3f
       -1.4448015925294735e-15 0.11454753722795472
0003f0 20 b9 4e d3 37 12 f3 bc d1 3d 3b c6 fc 52 bd 3f
       -4.234649148739421e-15 0.11454753722795565
000400 e8 01 d3 62 dc 56 eb bc c5 03 71 f9 09 de e5 bc
       -3.0352720696822308e-15 -2.4277624018877345e-15
000410 a2 d1 1f c7 23 09 ec bc 65 3f 3b c6 fc 52 bd 3f
       -3.112588206771728e-15 0.11454753722796125
000420 5c 30 84 39 36 87 f4 bc 19 3d 3b c6 fc 52 bd 3f
       -4.558169653468392e-15 0.11454753722795309
000430 f3 3e 3b c6 fc 52 bd 3f d2 3d 3b c6 fc 52 bd 3f
       0.11454753722795967 0.11454753722795566
000440 72 09 33 40 17 45 e8 3c 45 3d 41 0f 8c 67 b7 3f
       2.6944986274122958e-15 0.09142375347550054
000450 40 36 44 af 42 2f eb bc 38 51 2a bc d5 70 e3 bc
       -3.018098135495782e-15 -2.158358085324195e-15
000460 7e 53 3e 96 2a 7c e4 bc d5 3d 3b c6 fc 52 bd 3f
       -2.2742946220009915e-15 0.1145475372279557
000470 90 8f 4d fb ac 52 d9 bc d3 3c 3b c6 fc 52 bd 3f
       -1.4057062175689204e-15 0.11454753722795212
000480 00 3e 3b c6 fc 52 bd 3f 62 0f f1 1f cf e9 e3 bc
       0.1145475372279563 -2.210822272275659e-15
000490 92 3f 3b c6 fc 52 bd 3f d5 3c 3b c6 fc 52 bd 3f
       0.11454753722796188 0.11454753722795215
0004a0 88 49 60 71 12 51 7e bc d0 3d 3b c6 fc 52 bd 3f
       -2.6295534903987043e-17 0.11454753722795563
0004b0 83 3d 3b c6 fc 52 bd 3f 7c 36 e5 ee 0d da e0 bc
       0.11454753722795456 -1.870922872574514e-15
0004c0 b5 3c 3b c6 fc 52 bd 3f 8f 3d 3b c6 fc 52 bd 3f
       0.1145475372279517 0.11454753722795473
0004d0 e4 4a fa ff 38 ee e9 bc 30 ee c0 6a c8 46 df bc
       -2.878870169991964e-15 -1.7361942783913875e-15
0004e0 e9 3c 3b c6 fc 52 bd 3f b0 f6 f3 78 96 28 f2 bc
       0.11454753722795243 -4.032007178737852e-15
0004f0 0b 3d 3b c6 fc 52 bd 3f 2f 49 65 c5 3c 5a e1 bc
       0.1145475372279529 -1.9265133702807386e-15
000500 37 3d 3b c6 fc 52 bd 3f 9e 01 20 95 fb ba b9 bc
       0.11454753722795351 -3.570810500702461e-16
000510 40 3d 3b c6 fc 52 bd 3f ea 3d 3b c6 fc 52 bd 3f
       0.11454753722795363 0.11454753722795599
000520 a5 0d 95 44 60 06 0a bd cc 3b 3b c6 fc 52 bd 3f
       -1.1557380133617743e-14 0.11454753722794847
000530 c0 97 64 ae de de d9 bc 4c c1 39 5e 97 5f eb bc
       -1.43610597557193e-15 -3.0390582765251967e-15
000540 2e 20 6d f3 a8 47 f2 bc 94 f1 96 8c 15 23 ed bc
       -4.058957999908183e-15 -3.234862107555624e-15
000550 b9 3d 3b c6 fc 52 bd 3f ac ee 2f 7f fb 33 c5 bc
       0.11454753722795531 -5.885030320563946e-16
000560 18 af d1 93 49 66 00 bd 1c 44 88 0d 7b 2e b4 3f
       -7.282867732130247e-15 0.078834238818914
000570 74 3d 3b c6 fc 52 bd 3f d4 6d 0b af 1b ce eb bc
       0.11454753722795435 -3.0869873236281707e-15
000580 30 81 7b 45 56 c9 ee bc 04 6b 65 9f 44 5f ed bc
       -3.41798507800645e-15 -3.2609627052435635e-15
000590 f8 2e 42 9b 9d 15 f2 bc a8 3c 3b c6 fc 52 bd 3f
       -4.01555147666872e-15 0.11454753722795152
0005a0 97 3d 3b c6 fc 52 bd 3f c9 3c 3b c6 fc 52 bd 3f
       0.11454753722795484 0.11454753722795198
0005b0 69 3d 3b c6 fc 52 bd 3f 90 72 8f 28 1b 07 f5 bc
       0.1145475372279542 -4.669100251961534e-15
0005c0 b0 d5 27 f0 ed 2c ef bc 0c db 3a 9d 9d d0 f9 bc
       -3.461176417407208e-15 -5.732060382238711e-15
0005d0 c1 3c 3b c6 fc 52 bd 3f f8 3f 3b c6 fc 52 bd 3f
       0.11454753722795187 0.11454753722796329
0005e0 95 da ce 7e ee bb d1 bc d6 68 ce 1e 3b e1 e8 bc
       -9.844407455963393e-16 -2.762213608370755e-15
0005f0 64 3d 3b c6 fc 52 bd 3f 86 3d 3b c6 fc 52 bd 3f
       0.11454753722795413 0.1145475372279546
000600 9f 38 3b c6 fc 52 bd 3f 29 41 3b c6 fc 52 bd 3f
       0.11454753722793719 0.11454753722796752
000610 24 3e 95 c3 20 d8 f9 bc c0 3f 92 97 44 03 b3 3f
       -5.738576267267706e-15 0.07426861477347213
000620 80 bb 12 2b 76 e2 ef bc 68 3f 3b c6 fc 52 bd 3f
       -3.5399034375405794e-15 0.1145475372279613
000630 f8 3d 3b c6 fc 52 bd 3f a4 c2 4e c9 1c 9f f5 bc
       0.11454753722795619 -4.800944751740569e-15
000640 d4 72 22 86 3b e4 ea bc 49 c2 21 f6 e5 9f f4 bc
       -2.9855599396719518e-15 -4.579581754548654e-15
000650 7a 14 a4 d5 0f 7b f0 bc ee 3c 3b c6 fc 52 bd 3f
       -3.659452822064174e-15 0.1145475372279525
000660 7a 65 1e ea eb 21 f7 bc b1 3d 3b c6 fc 52 bd 3f
       -5.1364481601354265e-15 0.1145475372279552
000670 16 3e 3b c6 fc 52 bd 3f 34 58 ff 36 ae 53 f4 bc
       0.1145475372279566 -4.513473385570005e-15
000680 50 f2 9f 20 c2 49 d0 bc a8 3c 3b c6 fc 52 bd 3f
       -9.041722037565598e-16 0.11454753722795152
000690 66 3e 3b c6 fc 52 bd 3f 05 3e 3b c6 fc 52 bd 3f
       0.11454753722795771 0.11454753722795637
0006a0 2d 3e 3b c6 fc 52 bd 3f 5c 26 e4 52 6c a5 e2 bc
       0.11454753722795692 -2.070142295353949e-15
0006b0 0e 3e 3b c6 fc 52 bd 3f a7 3c 3b c6 fc 52 bd 3f
       0.11454753722795649 0.11454753722795151
0006c0 d1 3d 3b c6 fc 52 bd 3f 92 50 84 34 aa c9 e3 bc
       0.11454753722795565 -2.196881940185089e-15
0006d0 52 ff 91 bb c1 bf d6 3c 85 e0 ee ff 97 9c dc bc
       1.2628259480535082e-15 -1.5882680910434403e-15
0006e0 29 74 4e 5f e1 24 c1 bc 44 3f 3b c6 fc 52 bd 3f
       -4.758433621645173e-16 0.1145475372279608
0006f0 6b c7 7c fb de 26 e7 3c 5e cb 41 2e b8 5e f4 3c
       2.5703705764923516e-15 4.523048130327137e-15
000700 c8 f0 7b ef 80 2f ce bc 40 02 53 ba d8 37 e3 bc
       -8.378176249814534e-16 -2.1336433458061708e-15
000710 e4 62 b7 7f 4d f6 ab bc 4c 5b c9 10 d4 73 de bc
       -1.9402618428064377e-16 -1.690450813431752e-15
000720 84 1f 47 5c 4a f1 ec bc d2 92 48 c9 e7 31 f3 bc
       -3.2132675298976547e-15 -4.2621335411451025e-15
000730 6d 3c 3b c6 fc 52 bd 3f 46 a1 d2 f1 3d bb e1 bc
       0.1145475372279507 -1.968582402633125e-15
000740 5c ff 46 4f 97 2b ad 3c a1 3d 3b c6 fc 52 bd 3f
       2.024094610839478e-16 0.11454753722795498
000750 e2 7d ef c7 f4 f5 c6 bc f0 0b 0c 4b af 2e fa bc
       -6.372892855548588e-16 -5.81365228430089e-15
000760 fa 25 0b ab 99 a0 e0 bc ff 93 fa 63 e6 8d c5 3c
       -1.8460061023924385e-15 5.982519127502714e-16
000770 6c 29 d3 b6 bd 3c f5 3c 52 3e 3b c6 fc 52 bd 3f
       4.715621184279839e-15 0.11454753722795744
000780 34 ec 07 26 98 21 fe bc cd 3f 3b c6 fc 52 bd 3f
       -6.690476584471892e-15 0.1145475372279627
000790 78 05 d1 58 49 e6 e7 bc cf bb e9 43 62 17 e1 bc
       -2.6533838110550524e-15 -1.8975202697179756e-15
0007a0 3b 3f 3b c6 fc 52 bd 3f 63 3d 3b c6 fc 52 bd 3f
       0.11454753722796067 0.11454753722795412
0007b0 44 3a c8 ff 9b 9e eb bc b5 3d 3b c6 fc 52 bd 3f
       -3.066388016626867e-15 0.11454753722795526
0007c0 c2 3d 3b c6 fc 52 bd 3f 74 3b 3b c6 fc 52 bd 3f
       0.11454753722795544 0.11454753722794725
0007d0 b6 be 2a 9c cb 06 e8 bc 57 2a aa d9 6a 00 a7 3f
       -2.667482273117262e-15 0.04492505938568019
0007e0 fc d4 0e be f3 ff dc bc 16 30 8a b6 c8 67 e2 bc
       -1.609813003127127e-15 -2.04341059495763e-15
0007f0 f8 3f 3b c6 fc 52 bd 3f 48 cd 7c 78 89 08 f1 bc
       0.11454753722796329 -3.782162946323417e-15
