Modules/SVM/kernelAlphas_0.8018327605956472_0.5.npy (npy, 7104 bytes, 1 tensors)

array f8 [872]
0	0x3cb24e512462ff38	2.5404575152891403e-16
1	0x3fc82a77dc777e01	0.1887960268495448
2	0x3fe2a37e746ee0e3	0.5824577592930179
3	0x3fdb0f0b02e335b4	0.4227931526373496
4	0x3fe21863088ae099	0.5654769102902889
5	0x3fe544e1169c41a2	0.6646581117257038
6	0x3fe03ea29d918231	0.5076459004886315
7	0x3fe12352ac0d9d7c	0.5355618820585017
8	0x3fd379a02953de4d	0.30429843936824313
9	0x3fcf2a999f84a56d	0.24348755158397797
10	0x3fe9a89d2d73d49b	0.8018327605956473
11	0x3fe91420ca7363bd	0.7837070421329525
12	0x3fcfe53a84407d24	0.24918300111401337
13	0x3fdd64582d2ce615	0.4592495385328175
14	0x3fe57e6419220a38	0.671678589904622
15	0x3fcea93a154c5c0c	0.2395393947597032
16	0x3fdb6f54e10aed33	0.4286701390917244
17	0x3fd18dc548bc6931	0.27427799323199326
18	0x3fe0777efe467eef	0.5145869222942262
19	0x3fe8d4d4fbfaa467	0.7759804650751335
20	0xbca376e0ab1da91e	-1.3506116827745438e-16
21	0x3fe75ef23a9ddaf6	0.7303401131492524
22	0x3fe9a89d2d73d4a3	0.8018327605956482
23	0xbcc8949a17f90c88	-6.822452681245673e-16
24	0x3fe1addf60040c0a	0.5524746775921596
25	0x3cbc51918d806694	3.9299989940906044e-16
26	0x3fd93a154c099e00	0.39417011666816393
27	0x3fe9a89d2d73d49e	0.8018327605956477
28	0x3fe55ee5838e835c	0.6678340501276625
29	0x3fe6fb5cf17343e7	0.7181839671922007
30	0x3fe1949950a4cd65	0.5493895125459117
31	0xbcb4f744d280cf6b	-2.9096022667072536e-16
32	0x3fde6d9a93a7468f	0.47543968600539527
33	0x3fe9a89d2d73d4a0	0.8018327605956479
34	0x3fe4bacea0215f4e	0.647803604845629
35	0x3fdf7efba50159f7	0.49212542642399576
36	0x3fd94a3a789fbce4	0.39515554217991977
37	0x3fe561bcae8f6b62	0.6681807908420121
38	0xbc91f83f485e50f2	-6.234497507558536e-17
39	0xbcb7bf06ec29bd9c	-3.2954471622588587e-16
40	0x3fe57115038c5a4d	0.6700539655019583
41	0x3fcfb60cf542dcf1	0.24774324393886318
42	0x3fdef7e23def76b1	0.48387962387446765
43	0x3fb902ca380b716c	0.09769882076529307
44	0x3fe543e36d52ff67	0.6645371566046209
45	0xbcd0f619fca7c126	-9.415431783763268e-16
46	0x3fe8caf7be970549	0.7747763369044743
47	0xbcdd4566da626f5a	-1.6248724956211332e-15
48	0x3fd18e2b66565550	0.2743023394953825
49	0x3fdc8134ff8a7342	0.4453861709132988
50	0x3fe98010aaf79534	0.7968829478456088
51	0x3fc804712791eab6	0.18763555938843063
52	0x3c968471823df427	7.81227756311863e-17
53	0x3fe9a89d2d73d49c	0.8018327605956475
54	0x3fe7ba7fa18be0d7	0.7415159373477093
55	0x3fd090d4f7907b2a	0.2588398378010647
56	0xbca5aac8a9089d50	-1.5034587694947579e-16
57	0x3fe6eb3ccec2016b	0.716215518783469
58	0x3fe08c6aa79ffd83	0.517140700714592
59	0x3fe9a89d2d73d4a0	0.8018327605956479
60	0xbcc507215e1aef2c	-5.836401611765905e-16
61	0x3fdc941f5b8083c4	0.44654067931884023
62	0x3fd130485612bbf7	0.2685719337995915
63	0xbcc5c871cc2097b3	-6.045993264397516e-16
64	0x3fddee827efc65fb	0.4676824798676475
65	0x3fc5295485a41024	0.16532379651482743
66	0x3fb0f550716a8c44	0.06624319809866203
67	0x3fe661757ffd7611	0.6993968486601166
68	0x3ca74c54f6734a50	1.6166353969301172e-16
69	0x3fdb07c2f47f5a20	0.42234872700410797
70	0x3fe498b8afd02288	0.6436427530143911
71	0x3cb8b7217850bc98	3.42994444810152e-16
72	0xbcc3fc8ec4c09d14	-5.547382962823754e-16
73	0x3fe85fd8dec7d82a	0.7617000914749543
74	0x3fe9a89d2d73d49e	0.8018327605956477
75	0x3fe2984b25db7dee	0.5810905208017496
76	0x3fe9a89d2d73d4a2	0.8018327605956481
77	0x3fe52916f6a16117	0.6612658326148758
78	0x3fe122c0eedda1bd	0.535492388281504
79	0x3fe9a89d2d73d49f	0.8018327605956478
80	0x3fe9a89d2d73d498	0.801832760595647
81	0x3fcd95fdcaae328d	0.23113987347132472
82	0x3fcf6a5c2e091232	0.24543335197280808
83	0x3fd1fa73651badd2	0.2809113013633723
84	0x3fc2ce23461fe345	0.1469158260731779
85	0x3fe9a89d2d73d4a4	0.8018327605956483
86	0x3fe8d1fd782e1f49	0.7756335589665265
87	0x3fe31effb9263ea6	0.5975340477179614
88	0x3fe9a89d2d73d49d	0.8018327605956476
89	0x3fe9a89d2d73d49d	0.8018327605956476
90	0x3fe34ff7fba3fbce	0.6035118021826464
91	0xbcb96d151dea9770	-3.5285806870462446e-16
92	0x3fe31c041402bd8b	0.5971699133714748
93	0xbcaf896db3f2cfd4	-2.1883071871074176e-16
94	0x3fdd6d4394594d23	0.45979394423666714
95	0x3fbf6d66f84d9b06	0.12276309549416106
96	0x3fe9a89d2d73d499	0.8018327605956471
97	0x3faa8d3b0d6cae3e	0.05185875452874854
98	0x3f9dd01bc56eead0	0.029114183354731094
99	0x3ccc398c2d518c50	7.833954369003321e-16
100	0x3fd8f2331d716aa5	0.38978269458099596
101	0x3fd83a7424d1aaaf	0.3785677299080516
102	0x3fe64b2f9af7ce50	0.6966779734343138
103	0x3fc175e2d7154437	0.13641009809592372
104	0x3fe18fa211d32736	0.5487833355084379
105	0x3fe38c16bc1d2f3f	0.6108506845571141
106	0x3fe35c59a6f278e8	0.605023218220393
107	0x3f7c0def21500530	0.0068492260952564415
108	0x3fd820a9255108e6	0.37699345249360616
109	0x3fe7ff67a6c67d74	0.7499273545580949
110	0xbcb50e4352f31d1c	-2.9220674190106294e-16
111	0x3fe3ad25ae080032	0.6148861311958227
112	0x3fe436344241abbe	0.6316167158196249
113	0x3fe188bccc4727bd	0.547941588383075
114	0x3fd7c6194b6b0f20	0.3714659916406493
115	0x3fe9a89d2d73d49c	0.8018327605956475
116	0x3f9e808564e90786	0.02978714397818962
117	0x3fe91fd23096aa44	0.7851344059939227
118	0x3fe84c21dc52dbdd	0.759293489761031
119	0x3fe9a89d2d73d49b	0.8018327605956473
120	0x3fe55e1c46f822ce	0.6677380930060168
121	0x3fe67cf53ed51263	0.7027536608880606
122	0xbc930700d3ea3576	-6.601440360018085e-17
123	0x3fe21eead120472a	0.566274078797709
124	0x3f68b2175190a15c	0.003014607948461796
125	0x3fe73259c744e33a	0.7248963252996881
126	0xbcc21e22b9000e33	-5.028676732160654e-16
127	0x3fdad15d21066559	0.4190285513410195
128	0x3fbea48855a6b6b2	0.11969806758016935
129	0x3fd5463b738c5d4d	0.332411635246406
130	0x3fe3068f7f5faaea	0.5945508468406306
131	0x3fe7346aa7dc616b	0.7251485136539889
132	0x3c858cc8c5764e84	3.7383184269464385e-17
133	0x3fe07acc8514894c	0.5149901007864996
134	0x3fe9a89d2d73d49c	0.8018327605956475
135	0x3fe4defb3247ffc3	0.6522193891578286
136	0x3fe6ce9f3c7c5099	0.7127224141463727
137	0xbcd644f4c84f6d04	-1.23619781544365e-15
138	0x3fe0e386dda2ef09	0.5277742699467761
139	0x3fd2b7ea85b354f9	0.29247534805956793
140	0x3cbfc0188943f90c	4.4062495863916854e-16
141	0xbcc50f30b3ef79ea	-5.845140176559077e-16
142	0xbcab5565c8480e68	-1.896648416474604e-16
143	0x3fdec4599c68681e	0.48073425554469107
144	0x3fdb0f3446863394	0.42280299079066563
145	0x3fe50250afcca6f4	0.6565326150495978
146	0x3fd556ab0fb0c2f3	0.33341480762741965
147	0x3fdb1915df6e340f	0.42340609378226274
148	0x3fe38f6945ce7751	0.6112562526138651
149	0xbcc2a258e019ca05	-5.172020764688376e-16
150	0x3fd4a2af4cdfbc5d	0.3224294901583045
151	0x3fc231f77ff0b77e	0.14214986559948878
152	0x3fe664c8d3740b68	0.6998027925441024
153	0x3fe4b30ee8b136eb	0.6468576950807948
154	0x3fcdc9f2bb3508cb	0.23272546902632593
155	0xbca89ca6126a9cc8	-1.7077942571698965e-16
156	0x3fe48b683150b3d1	0.6420174563587527
157	0x3fb2c56a543f38d8	0.07332481915293287
158	0x3fc9e9b393f2b599	0.2024445030596496
159	0x3fd8fd903233a907	0.3904762735607083
160	0x3fd48239eafd1d76	0.32044837902181855
161	0x3fc765410cc239bc	0.18277752993567542
162	0x3fe28cdbf500c7c4	0.5796947274413857
163	0x3fdadc7ca8580331	0.4197074550611886
164	0x3fd2cefd4413afe9	0.2938836254895692
165	0xbcb3b71de2f916f7	-2.736047469632553e-16
166	0x3fda440f7f2eb836	0.4104040853516183
167	0x3fd58340d6c37e30	0.33613606427204257
168	0xbcb7324a57ebbefb	-3.2191536784692023e-16
169	0x3fe1ccbe6853a1a3	0.5562431371336526
170	0x3fe2216eaeba176e	0.5665810978541523
171	0x3f92208ad25cf0a8	0.017702263917485667
172	0xbcabf59337b9fe4d	-1.9400646099033e-16
173	0xbc95251f2adb59f7	-7.336147948472285e-17
174	0x3fe9a89d2d73d49c	0.8018327605956475
175	0x3fdd4071d50b5e6f	0.4570583897125066
176	0x3fe857a4aef34722	0.7606986443517807
177	0x3fe475b98b123ff1	0.6393707004772279
178	0x3fd944a32bc30d0c	0.39481429360985554
179	0x3fe9a89d2d73d49e	0.8018327605956477
180	0x3fe46ad1329c1b0b	0.6380392063591399
181	0x3fe7b0ba18b19fa6	0.7403231127072913
182	0x3fd18e0d63368e49	0.27429518402843606
183	0x3fddf924ca7d7adb	0.46833152555875096
184	0x3fc909638029e992	0.19559901960367349
185	0x3fb7a66cb319be0b	0.09238318798610849
186	0x3fe02d953f12a62a	0.5055643302814066
187	0xbcce54e52de4844d	-8.418716279132166e-16
188	0x3fd8af6405b130e1	0.3857049995028899
189	0x3fe44f8e0502634e	0.6347112748945649
190	0xbcb78fe2877048bf	-3.2698913450671613e-16
191	0x3fe828fd7ff025ba	0.7550036906042614
192	0x3fdd076dfa7ea74a	0.4535784670102784
193	0x3fcf7e424bd369e8	0.24604061796601617
194	0xbcbae7098a4d8cb4	-3.7334703832101565e-16
195	0x3f895fbf3c024fe5	0.012389654177503881
196	0x3fdfdd960d709158	0.4978995448348278
197	0x3fd8713a74d699a6	0.3819109097479675
198	0x3fbdda366c0225ef	0.11661090981410614
199	0xbcbf2545d076f95e	-4.322319798176799e-16
200	0x3fca1552e9ec39cc	0.20377575323114028
201	0x3fc6d75a3d1ad902	0.17844703658710875
202	0x3fcb167ba4a78fd4	0.21162362613460906
203	0x3fba3f2850e7cd72	0.10252620673400317
204	0x3fbfb1700519042d	0.12380123257118276
205	0x3fd7df9ce9ccc11e	0.37302325088514177
206	0x3fd53cc5fca0dbcf	0.3318343131135721
207	0xbcc2b729a071843c	-5.194588904446034e-16
208	0x3fca936380ff894e	0.2076229457735032
209	0x3fddb115d2d10f54	0.4639334257847072
210	0x3fe3f183aa36b123	0.6232317280278362
211	0x3fe685e42d40a3c2	0.7038441547239176
212	0xbca4d42432cbe71f	-1.4452798224951847e-16
213	0xbcd948a52d04bfee	-1.403531201455433e-15
214	0x3fe5eb58bfde8165	0.6849788424915856
215	0x3fe610d9a99113b1	0.6895569145059338
216	0x3fe9a89d2d73d4a4	0.8018327605956483
217	0xbcc020ddac75f14a	-4.476525392550043e-16
218	0x3fd227d5f7616636	0.283681384642111
219	0x3fe013f5e209e861	0.5024365820711517
220	0x3fc851c0bbb00266	0.18999489941053865
221	0x3fbf11fbb837abcd	0.12136815307137212
222	0x3fd9ba0662ee1e73	0.4019790617098586
223	0xbcc017c4de3e154c	-4.466662517450054e-16
224	0x3fe472fe6f9f1d23	0.6390373401745005
225	0x3fe66955a29aacdf	0.7003582168448722
226	0x3fdb500391f6ad91	0.42675866369491994
227	0x3fe48b4948fe5a70	0.6420027185111632
228	0x3fb8e3f4ba3219cb	0.09722833200257879
229	0x3fe07ddf1a1d9466	0.5153651723927737
230	0x3fe857837f33178b	0.7606828197829015
231	0x3fd906455ab7eeb7	0.3910077463076322
232	0x3fd9a6719c2bacc6	0.40078392268214846
233	0x3fb8293d547f1b05	0.09437926590826969
234	0x3fcd6e5fe06648b2	0.22993086297043913
235	0xbcbd36f82fa456fa	-4.0543574774355904e-16
236	0x3fd3278dca4efd14	0.2992891765279222
237	0xbcb4837ef63214fa	-2.8468416557216186e-16
238	0x3fdd4cbaac379f4c	0.4578081781205483
239	0x3fe9a89d2d73d49e	0.8018327605956477
240	0x3fd31b4f8aeaf4ba	0.29854191366377913
241	0x3fca2882860de7b8	0.20436126275654742
242	0x3c96788bf734aea0	7.796154592139615e-17
243	0xbcbedd33118a26b7	-4.2832488241893713e-16
244	0x3fe38df10bdf67f9	0.6110768539322172
245	0x3fe9a89d2d73d49d	0.8018327605956476
246	0x3fd7aedeaa88d530	0.3700482049346929
247	0xbcc4cf95e8ed7ec9	-5.7761798658418e-16
248	0x3fd3e88dd1adeba1	0.31106896854879024
249	0x3fe5dd2ada12a16c	0.6832479724153422
250	0x3f7c21171e9c6f13	0.0068674948795679645
251	0xbca073bf2ebc07ac	-1.1415962594896006e-16
252	0xbcbbab00b3056b18	-3.8397034746857863e-16
253	0x3fd39e7ac5cca806	0.306547825969233
254	0x3fe5867083a151f2	0.6726610728169915
255	0x3fd15a8a9a981236	0.2711512098033241
