Modules/SVM/kernelAlphas_0.572737686139748_5.npy (npy, 7104 bytes, 1 tensors)

array f8 [872]
000000 c1 e4 41 98 d2 d4 bc bc d0 b4 6f 3a 65 ec a9 bc
       -4.001151968212487e-16 -1.798798583750133e-16
000010 93 05 e5 fb dd 53 e2 3f df 13 9d c7 7a f1 d9 bc
       0.5727376861397481 -1.4401413239807603e-15
000020 9a 28 e5 d5 53 c7 e7 3c 10 ad 5b 97 46 1a a3 bc
       2.639957472476325e-15 -1.3255118972488825e-16
000030 7a 0a 0a 2b 4d e5 da 3c bf a6 48 c7 da 08 b8 3f
       1.4930117554543194e-15 0.09388511052443514
000040 b0 db de 76 44 fc ce 3c f8 a9 ea 67 6a bf a1 bc
       8.600181589905204e-16 -1.2314952790551387e-16
000050 48 e9 7d 49 72 9f b2 3c 2c dd e8 97 0f b9 b3 3f
       2.5844378904194265e-16 0.07704255541544985
000060 e2 ce 07 c5 08 40 d3 bc 42 54 d1 7c 61 45 cc bc
       -1.0685970893845317e-15 -7.846783998192511e-16
000070 8a 05 e5 fb dd 53 e2 3f aa 45 fc fb 72 12 c3 3c
       0.5727376861397471 5.293561983603547e-16
000080 a4 88 73 ae fd 58 c0 bc e5 d8 69 ad fc 03 cd 3f
       -4.537376272412353e-16 0.22668417422727952
000090 db 2f 51 c5 30 a1 c4 bc 20 d8 ea a0 f7 f3 ca bc
       -5.725878225141486e-16 -7.480959535821768e-16
0000a0 48 80 6e 67 65 15 c7 3c f6 5d ac e3 48 1a bc bc
       6.406980099988237e-16 -3.900029563630335e-16
0000b0 1a 8c ea 38 3b a3 da 3f ec 09 be bb 73 92 a9 bc
       0.4162128501722592 -1.7744193927428103e-16
0000c0 d0 41 b6 39 73 25 c4 3c 4c c6 a4 41 93 34 be 3c
       5.591718602216404e-16 4.1918374264286286e-16
0000d0 60 2d 17 c6 a7 1b d5 3f 95 59 76 e7 74 87 e0 3f
       0.32981294960764806 0.5165352364299901
0000e0 6a be 6b 71 95 d1 c2 bc 88 17 ba 4a 4d 40 b1 3c
       -5.223234780799344e-16 2.3940820688169477e-16
0000f0 d4 2c b3 0c 12 db bf bc 7c 7b c5 fb 34 9d d5 bc
       -4.4208725798434043e-16 -1.1998230028274511e-15
000100 7c c5 88 a0 26 63 d9 bc 95 05 e5 fb dd 53 e2 3f
       -1.4092787022119756e-15 0.5727376861397483
000110 d0 d6 5e a7 1c 1e c9 bc b8 69 23 ac ff a6 c6 bc
       -6.971541322606489e-16 -6.28728701086852e-16
000120 60 9d 4c f0 2f 68 a7 bc bf c9 4e 9c 1b 4e d3 3c
       -1.6241856114234499e-16 1.0716488143532626e-15
000130 4e 9d 93 57 ed e0 d0 3c b6 9c 44 a4 20 95 c0 3c
       9.369517136027006e-16 4.602576465058893e-16
000140 24 32 4d f9 61 8c ce bc fc 92 26 2d 05 3e b4 bc
       -8.478875924164179e-16 -2.8091787902994566e-16
000150 40 45 9d 9d 3c 9c b8 3c f0 fe 70 a3 aa 20 c4 3c
       3.415365202026673e-16 5.586532274561468e-16
000160 24 b5 9c 57 3e 0b ad 3c c1 51 47 4d 8a 63 02 bd
       2.0153267955161575e-16 -8.166280571343877e-15
000170 a6 d9 bf 87 c1 8b d2 bc 50 3d 75 ce c1 0e a4 bc
       -1.0295054690736943e-15 -1.3917786889738073e-16
000180 26 c2 27 32 e3 03 cd 3f 41 74 71 73 c9 ee a2 3f
       0.2266811365984875 0.036978049604592396
000190 0f 9e 92 eb da 09 ca 3f f3 6b 28 15 ce ff c5 bc
       0.20342575552534511 -6.106015227229594e-16
0001a0 63 ee b1 dd 1a 69 da bc 41 5d 52 d4 51 d6 d8 3f
       -1.466080934018896e-15 0.3880810330824325
0001b0 f5 63 9b cd 3b ad af 3f 1d 8e 5a ae f0 a7 c3 3f
       0.0618685425267315 0.15356262696615
0001c0 f8 f2 eb d4 05 1d a5 bc c8 5a d0 5f 83 82 9a 3f
       -1.4650343601503708e-16 0.025888493273749785
0001d0 90 eb 8c 03 fd 57 a0 bc 8d bd ca 5b 6b 04 e1 3f
       -1.1340723107306827e-16 0.5317894738017671
0001e0 00 65 3f de 87 1c 91 3c 70 b5 b6 c8 03 4d c2 bc
       5.936726174380752e-17 -5.079503204118523e-16
0001f0 77 87 3b 74 37 37 c4 bc e0 01 ab c0 15 11 bf 3c
       -5.610981099578983e-16 4.31137600183066e-16
000200 e8 bf 47 3f 1f b6 c5 3c 90 23 a7 3f 5b 28 c3 3c
       6.026128011665541e-16 5.317313906908586e-16
000210 97 47 59 6e a3 64 d1 bc 48 af 0a 8c c3 51 d1 3f
       -9.655120458648775e-16 0.27061546970320594
000220 34 f9 32 74 f9 16 d2 3c 28 4e 9e a8 96 49 c8 3c
       1.004182507396064e-15 6.74112297060992e-16
000230 34 e2 5a 27 0d 6d c1 bc 7c 85 30 b0 43 4b 99 bc
       -4.8366815996735e-16 -8.775619672115439e-17
000240 39 af 3b 37 90 3b cb 3f 94 05 e5 fb dd 53 e2 3f
       0.21275522896700652 0.5727376861397482
000250 9f 05 e5 fb dd 53 e2 3f b2 64 a3 f8 34 8c c7 3c
       0.5727376861397494 6.535795037683792e-16
000260 92 05 e5 fb dd 53 e2 3f 05 cc 7c 5d c6 1c cb 3c
       0.572737686139748 7.525203186287936e-16
000270 49 84 ae ae be ac ad 3f a8 19 e2 41 79 57 a6 bc
       0.057958563636255685 -1.5502664423309673e-16
000280 58 d8 2a c7 c2 d6 bc 3c c2 b1 93 f7 2f 92 ae 3c
       4.002202677097234e-16 2.1212923376077283e-16
000290 83 05 e5 fb dd 53 e2 3f 40 26 8c 1d 63 1d 89 3c
       0.5727376861397463 4.356722210649936e-17
0002a0 42 eb 43 8d 39 05 c1 3c a9 80 22 24 ea 68 9d 3f
       4.724112606947799e-16 0.02872052999066513
0002b0 0f 6e f6 29 91 25 d4 3f ec bd 9f 00 a8 83 ca 3c
       0.3147929105559521 7.359191662657889e-16
0002c0 40 db b1 e4 89 ea be 3c 7f 2f 54 c1 b6 32 d7 3f
       4.290479997028224e-16 0.36247033004541857
0002d0 f9 ec 52 bf 9c 49 b6 bc 00 1c ca 1a 75 fc b7 3c
       -3.0930186224587736e-16 3.328748648265036e-16
0002e0 f5 0f b0 eb aa de e0 3f d0 dd 7c cc 8c 4b be bc
       0.5271811106945267 -4.204292076827185e-16
0002f0 02 c3 e5 32 e2 14 a8 bc c2 67 c1 7d a3 cb b9 bc
       -1.670995045114916e-16 -3.579839678611927e-16
000300 51 a5 71 6e 01 41 cc bc 48 bc 98 0a aa 17 a3 3c
       -7.842040375893923e-16 1.3248040425620619e-16
000310 be 69 18 f0 9e 0c de 3c dc fd 97 47 b4 4f a1 3c
       1.6680712477662856e-15 1.2012158350886246e-16
000320 3a c5 6c 18 ef d6 c5 3c 90 93 0c 27 34 46 b8 bc
       6.061702752641756e-16 -3.36872658720241e-16
000330 98 95 9d 39 26 7e 9f bc 58 c3 41 ec 46 3c d4 3c
       -1.0926249755009579e-16 1.1232935247097563e-15
000340 d6 62 21 5a 02 37 c0 3c c2 1c a8 5a 66 da ba bc
       4.500533179399429e-16 -3.7266196101287824e-16
000350 20 df 3e 53 eb c3 7d bc 3a 18 a5 40 87 1c ca 3c
       -2.58172906033215e-17 7.247380137592683e-16
000360 34 2e 7c 56 bb 13 c4 bc 63 f3 0a 4c 53 d7 dc 3f
       -5.572508370984319e-16 0.4506424181561696
000370 38 68 b8 64 ad 64 b5 3c 64 94 16 e6 26 d0 c5 bc
       2.968912723154126e-16 -6.054349673909029e-16
000380 96 05 e5 fb dd 53 e2 3f d6 94 78 98 27 f5 c9 3f
       0.5727376861397484 0.20279402680276942
000390 40 43 c6 65 5f fa 9d bc fa bb 67 27 70 7f d9 3f
       -1.0400714370026213e-16 0.3984032044235729
0003a0 9b 65 28 ff 08 fa b6 bc ba 37 aa ce e1 75 e1 3f
       -3.18865764055467e-16 0.5456398998664931
0003b0 02 8a 59 56 71 9d c6 3c a1 c8 33 55 27 44 df 3f
       6.276926378670766e-16 0.48853476830039183
0003c0 40 0d b5 86 05 94 8a 3c 26 9d 9f f1 f2 91 ba 3f
       4.610584366224557e-17 0.10378950499545123
0003d0 28 35 c1 0f 6f 78 bf bc 04 f5 42 f1 c3 3e b3 bc
       -4.3674015327344424e-16 -2.6708048750623605e-16
0003e0 45 b9 dd 1c 26 db d1 3c 2a 4e 31 5e dc 55 d7 3f
       9.912099088481842e-16 0.3646155280923461
0003f0 92 b6 b7 6c 3d 89 be bc b3 16 0f 45 e4 ff bb 3f
       -4.2377342629752044e-16 0.10937334714898377
000400 60 38 47 9e 8a 10 83 3c d3 d7 fc 42 a4 af b2 3c
       3.307183545597563e-17 2.5932173331164624e-16
000410 50 84 09 07 0b 0f bf 3c 89 05 e5 fb dd 53 e2 3f
       4.310269088332321e-16 0.572737686139747
000420 1f b4 b5 cc bc d4 b0 3c 43 a5 e8 34 ce 26 d8 3f
       2.3357712783385956e-16 0.3773684994399284
000430 32 a7 a6 ad 10 79 dd 3f c1 cd 65 a3 1d bb be 3f
       0.4605142303286015 0.12004266013337085
000440 a8 85 2f 57 bb e3 99 bc 20 42 c8 16 13 f1 86 bc
       -8.982251519040537e-17 -3.979750127523885e-17
000450 c8 42 ff f9 0d 7e b5 bc d8 a9 f2 2f 46 1a c7 bc
       -2.982669773006057e-16 -6.412268902842346e-16
000460 24 11 dc ae e1 61 c4 bc 88 9c 2e 88 a4 cc a7 bc
       -5.657238538732563e-16 -1.6514141136854755e-16
000470 f0 dd d9 d5 0c 17 d5 bc f4 5d 1e 50 aa 6b bc 3c
       -1.1707323778189609e-15 3.9441460541443063e-16
000480 03 fc 00 74 c3 56 d9 3f c0 a9 2d 7b cf 1b 93 3c
       0.39592062309742476 6.629639428177781e-17
000490 ef ca ac 6d 65 d8 a4 3f db 46 82 8f 5f 23 d4 3f
       0.04071347202115826 0.314659013886837
0004a0 60 d5 5c 30 99 e8 93 bc 90 26 de 2e a8 77 ab 3c
       -6.90717881410424e-17 1.9059344394458968e-16
0004b0 01 86 0d 98 56 e6 da 3f 60 73 29 a1 40 88 75 bc
       0.4203087315455321 -1.867623778588588e-17
0004c0 dc 70 af a6 20 6d a4 bc e0 77 a7 80 29 bb 98 bc
       -1.4173578606938742e-16 -8.580324655205833e-17
0004d0 31 50 39 07 26 cb d3 bc 8b 44 6d cd 45 f8 b0 3c
       -1.0987626927506194e-15 2.355034931072804e-16
0004e0 c8 99 0b cb 07 63 a4 3c 3c f0 9d 67 6b f5 b7 bc
       1.4146210358644917e-16 -3.324933400339486e-16
0004f0 42 9a 24 1a 13 e9 cb 3f 74 d8 a8 4d 43 6c c6 3c
       0.21805037285339962 6.223605510873655e-16
000500 a6 fa 2f 1f 75 61 c1 bc 34 1f 9c 46 29 e5 b3 bc
       -4.824111495614709e-16 -2.7610082371824296e-16
000510 ea 03 06 80 f8 e3 d9 3f 2a 48 d1 b2 0a 65 e1 3c
       0.40453922750754023 1.931199033605128e-15
000520 a7 a0 d2 f8 4f 80 a2 bc 70 83 7c 4c d7 0d b8 bc
       -1.2837800458332097e-16 -3.338172300886286e-16
000530 22 fa ac 2d cc 44 bf 3c 80 95 db 62 5a 71 b7 3c
       4.339409458910555e-16 3.25334001868803e-16
000540 79 f3 cc 17 9c dd c2 3c 2c 43 55 cd a5 e7 b3 3c
       5.236273370379093e-16 2.762356133972797e-16
000550 62 e4 a6 4a 3c 5f d4 3f b8 77 0f fc cd 37 c2 bc
       0.3183127144835166 -5.056507109060704e-16
000560 88 c3 bb 2d 09 f0 9a bc 1c 81 1f 43 c9 2a a8 bc
       -9.345871318173959e-17 -1.6769317543913154e-16
000570 1e ce d9 05 f6 3f d1 3c 94 8b 34 d4 74 ff be bc
       9.575589077684027e-16 -4.301819514211669e-16
000580 e4 d2 78 ab 4b d0 d9 bc 7e 19 2c fc 86 d8 c2 3c
       -1.4329456859810366e-15 5.23076296398489e-16
000590 2f f1 03 0f f8 16 c0 bc 40 e2 10 fc 3a 99 80 3c
       -4.46579511555884e-16 2.879390525329368e-17
0005a0 cc 3c fd 1a f5 ed d3 3f 53 f6 78 64 96 3c c3 3f
       0.31139876971878944 0.15028648286709032
0005b0 37 fe 74 65 ee 03 cd 3f f6 9f e1 8c ea 62 b3 3c
       0.22668247178988718 2.69040226955387e-16
0005c0 7a 4d 68 cb bf 70 b7 3c 3a 75 dd 6c b0 ee b8 bc
       3.253012658235671e-16 -3.4600627274087893e-16
0005d0 83 19 ae 96 e0 15 5d 3f a3 05 e5 fb dd 53 e2 3f
       0.0017752354858387726 0.5727376861397498
0005e0 1e f3 3d 37 c7 bc cd 3c 2e 11 07 d2 03 b4 c1 bc
       8.253790648644256e-16 -4.913620425813789e-16
0005f0 da 50 e9 d5 7a cf c3 bc 44 cf e9 42 35 fb da 3f
       -5.498509445638909e-16 0.4215825227213268
000600 73 48 e3 aa 10 aa b9 bc 87 05 e5 fb dd 53 e2 3f
       -3.5616394314837235e-16 0.5727376861397467
000610 b0 73 09 ad 4b aa b3 bc a5 89 cf 0d b9 3a b5 bc
       -2.729097118151492e-16 -2.946169169620604e-16
000620 c0 0a f5 e8 60 89 79 bc 8d 05 e5 fb dd 53 e2 3f
       -2.2149500097831045e-17 0.5727376861397474
000630 4c 31 be f6 6b 06 c2 3f d8 9d e3 66 c4 80 d9 3c
       0.14082097576136687 1.4157007152863017e-15
000640 40 55 11 d8 a4 ae 9e 3c b6 ae db 1f 8a e4 c7 3c
       1.0645027505322832e-16 6.631565466703577e-16
000650 e8 4b 76 8b 14 42 c0 3c 10 b0 8e c7 04 75 9f bc
       4.51253645238623e-16 -1.0913875421355662e-16
000660 c0 ff 76 70 c4 d1 87 bc b5 d4 4c 3b a9 e6 e0 3f
       -4.1320078740669584e-17 0.5281568678098184
000670 35 f7 60 41 52 fa da 3f 60 62 76 77 eb 5a c0 bc
       0.42152840027471267 -4.539467534077608e-16
000680 00 86 6f e1 8d 2c b6 3c 00 cf c1 ff ee e6 66 3c
       3.0772662093876636e-16 9.932195836660891e-18
000690 6d 05 e5 fb dd 53 e2 3f 16 b8 34 36 21 3e d3 3f
       0.5727376861397439 0.3006670979838203
0006a0 80 f9 49 28 91 c3 81 bc 30 f0 10 42 ff 0b a0 bc
       -3.0815512773145845e-17 -1.113474845594683e-16
0006b0 92 fe 31 26 3e a5 d4 3f 8c a5 be 77 2d f6 be bc
       0.32258561830529076 -4.296789491271675e-16
0006c0 7c 62 f1 e3 9b 93 b0 bc 40 ae 3f 6b c9 15 8b 3c
       -2.3004650196946097e-16 4.6985166901473563e-17
0006d0 8b a4 47 a6 86 36 da 3c 14 9f d4 80 3e 43 c7 3c
       1.4551133680643666e-15 6.456688648687532e-16
0006e0 00 e6 e2 9b 30 3c 90 3c 4b a2 52 54 07 bb b1 bc
       5.632687619599955e-17 -2.460612351034191e-16
0006f0 26 b6 d4 54 61 23 ae 3c 08 76 06 70 fd 3b 94 3c
       2.0912579937786684e-16 7.020195501603516e-17
000700 18 06 8b 50 51 52 aa bc fe 84 f2 e6 d0 2b cc 3c
       -1.8264246547560374e-16 7.81906660076139e-16
000710 92 7d f9 83 d6 a3 75 bc 7a 33 53 57 ee 50 a4 3c
       -1.8769701068709132e-17 1.4097151777007163e-16
000720 44 ea 98 21 73 9f bf 3c f8 51 16 ce 78 5a 77 3c
       4.3885520930179703e-16 2.0255850675978845e-17
000730 a6 18 d7 9e 4b 3d ba 3f 80 ab a7 8a ca a8 71 3c
       0.10249779346404128 1.5317036302390976e-17
000740 fc 8a 14 36 2e b5 9f bc d0 88 f4 80 a7 ba ba 3c
       -1.1000830932906655e-16 3.709410335020907e-16
000750 09 97 cf 6d 18 1b 9a 3c 60 ba ac 03 b8 b7 99 bc
       9.057283224179025e-17 -8.922602790720842e-17
000760 80 89 7b 85 70 2b 5c bc 73 6e f7 6a fd 72 b0 3c
       -6.108326884786924e-18 2.2827822062275156e-16
000770 48 d8 0d 9d e8 79 a8 3c 29 0d 7e dc 73 d3 d0 3f
       1.6983779417705815e-16 0.26290604145488544
000780 3c 8b 00 30 33 8b ba 3c db ab 67 15 b4 d6 cd 3f
       3.683685274784544e-16 0.2331147293583332
000790 8e c2 af 00 bf 6a c6 bc ee a5 f1 26 50 09 bb bc
       -6.221960993544675e-16 -3.752051346612245e-16
0007a0 90 28 d5 71 e8 4e 9a 3c 79 04 7c 08 ba de d2 3f
       9.127502338674285e-17 0.2948441584449664
0007b0 9b 15 68 7e ee 2a d1 bc da d5 f4 27 3f 48 c5 3f
       -9.529988812659958e-16 0.16626729441638483
0007c0 60 b8 ac 3f 1e 50 af 3c 4d ce 2e cb 27 0c d8 3c
       2.1727731807488114e-16 1.334903421324705e-15
0007d0 d0 7a 9c 0e 3a b8 ba 3c 44 7e 02 ae 8e 6f a5 bc
       3.708094370539196e-16 -1.4874053981425415e-16
0007e0 18 0a 2e d2 e9 80 cb bc 22 10 94 a1 70 b3 c2 3c
       -7.633773564815304e-16 5.190552811228493e-16
0007f0 31 b1 67 32 fe a5 c3 3f 27 6d cc 43 b6 1c c0 bc
       0.1535032030218502 -4.472021680944987e-16
